app/profiler/bests/a.ckpt (torch, 543869 bytes, 36 tensors)

layers.0.weight f4 [128, 97]
0	0xbd2e0b00	-0.04249096
1	0x3e1e8aed	0.15482683
2	0xbc19f5f6	-0.009397021
3	0xbca170ba	-0.019707073
4	0xbd2ba54a	-0.04190568
5	0xbd22f853	-0.0397876
6	0x3d158d64	0.036511794
7	0x3e6fb61e	0.23409316
8	0xbd82a1b8	-0.06378502
9	0x3d3ac7ed	0.04560082
10	0xbe2ed05a	-0.17071667
11	0x3d8f32b4	0.06992093
12	0x3a4214e3	0.0007403625
13	0x3da3fbb4	0.08006993
14	0x3ddb737e	0.10715388
15	0x3bce47a5	0.006295162
16	0x38bbec54	8.9608744e-05
17	0xbca803f6	-0.020509701
18	0xbd0096e2	-0.031393893
19	0x3d436081	0.047699455
20	0x3d0d0aae	0.034434013
21	0x3e260fe9	0.16217007
22	0xbe0ebc5e	-0.13939044
23	0x3bc66eba	0.00605568
24	0x3ddfd665	0.109295644
25	0x3db34608	0.08753592
26	0xbd930362	-0.071783796
27	0xbdee381e	-0.11631797
28	0xbd673aef	-0.056452688
29	0xbbe34438	-0.0069356225
30	0x3dc11334	0.09427491
31	0xbd281615	-0.041036684
32	0x3d097304	0.033556953
33	0x3de8d0f2	0.11367978
34	0xbcb39b42	-0.021924619
35	0xbc811d7e	-0.015761133
36	0x3d71d3ff	0.059040066
37	0xbdf15006	-0.117828414
38	0xbd63743d	-0.055530775
39	0xbda6adba	-0.081386045
40	0x3c5f9046	0.013645237
41	0xbdaed438	-0.08536571
42	0xbd795d94	-0.06088026
43	0xbc5737f4	-0.013135899
44	0xbdd5bb32	-0.10436095
45	0xbd8a57c4	-0.06755021
46	0x3dc23ae8	0.09483892
47	0xbd1128f9	-0.035439465
48	0x3d8675e3	0.06565454
49	0xbd3fadaa	-0.04679648
50	0x3c2046a8	0.009782471
51	0x3b5e228c	0.0033895103
52	0x3c3b2086	0.011421328
53	0xbc091907	-0.008367783
54	0xbd1a2ead	-0.03764217
55	0xbca81662	-0.020518485
56	0x3e15986f	0.1460893
57	0xbdae2e97	-0.0850498
58	0x3d256ffd	0.040390003
59	0xbdc8c8f9	-0.098039575
60	0xbdc26477	-0.094918184
61	0x3a9540de	0.001138713
62	0xbd6382a4	-0.05554451
63	0xbd5dc8d1	-0.05414659
64	0x3c076093	0.008262771
65	0x3e070576	0.13185677
66	0xbdd6e64c	-0.104931444
67	0x3dabe4ac	0.08393225
68	0xbdc36046	-0.09539847
69	0x3d45a772	0.04825539
70	0xbd07a559	-0.033116672
71	0x3d0f0098	0.034912676
72	0xbcfe5d89	-0.03105046
73	0x3df30ea9	0.118680306
74	0x3d264cb2	0.040600486
75	0x3dadb9ee	0.08482729
76	0xbcbbfa37	-0.02294646
77	0xbdfcb2a3	-0.1233876
78	0x3d7e122f	0.06202906
79	0xbd9821f8	-0.07428354
80	0x3c5bcf17	0.013416073
81	0x3c84027f	0.016114471
82	0xbd2df45d	-0.04246937
83	0x3e097e14	0.13427001
84	0xbd78a167	-0.0607008
85	0x3e2061ac	0.15662259
86	0x3d1fe8a6	0.03904023
87	0xbdec3db8	-0.115352094
88	0x3d9c653b	0.07636496
89	0x3db34720	0.087538004
90	0x3c90f5fa	0.017695416
91	0x3dc16ecc	0.09444961
92	0x3cc1b596	0.023646157
93	0xbc384421	-0.011246712
94	0x3d89c998	0.06727904
95	0xbbde95fe	-0.006792783
96	0x3b81d9d0	0.003962733
97	0x3d30e7a3	0.043189656
98	0xbd930cfb	-0.0718021
99	0x3d322aa8	0.04349771
100	0xbe2829bb	-0.16422169
101	0x3d712afc	0.058878884
102	0xbd1637ac	-0.036674187
103	0xbe50643d	-0.20350738
104	0xbdba30b4	-0.09091321
105	0x3d96acf5	0.07357208
106	0x3d471a84	0.04860927
107	0xbbfe4bdb	-0.0077605075
108	0xbe855742	-0.26043135
109	0x3dcbe0bc	0.09954974
110	0x3ddd75e3	0.10813501
111	0x3c5cb347	0.013470477
112	0xbe06183d	-0.13095184
113	0x3df8e984	0.121539146
114	0x3d593396	0.05302771
115	0x3dea8d04	0.11452678
116	0xbde06ba1	-0.109580286
117	0xbd2f5511	-0.042805735
118	0xbdc00c16	-0.09377305
119	0x3e830c85	0.2559549
120	0x3d5f0c0e	0.054454856
121	0xbd932e75	-0.07186595
122	0x3b90f1a7	0.0044233385
123	0x3d741466	0.059589766
124	0xbc512ff8	-0.012767784
125	0x3d2a94e1	0.04164589
126	0x3dbc5402	0.09195711
127	0xbd0cd1bd	-0.03437971
128	0x3dd6567b	0.104657136
129	0x3e19d865	0.15023954
130	0xbc991b71	-0.018689843
131	0x3d020681	0.031744484
132	0x3d8a5281	0.067540176
133	0x3d69e8ee	0.057106905
134	0x3b4291a6	0.0029688864
135	0xbd825e73	-0.06365671
136	0x3da08bad	0.07839141
137	0x3b02c97d	0.0019956522
138	0x3dcfb9a0	0.10142827
139	0x3d884df3	0.06655493
140	0xbc48c919	-0.012254977
141	0x3e696dcb	0.22795789
142	0x3d04dfab	0.03243987
143	0x3e64446e	0.22291729
144	0x3d43390f	0.047661837
145	0x3cfe013a	0.031006444
146	0x3d46b5f2	0.04851336
147	0xbab2b210	-0.0013633389
148	0x3cf9f492	0.030512128
149	0x3e1b3bca	0.15159526
150	0x3e556a1a	0.20841256
151	0x3e6be86d	0.23037882
152	0x3e06830b	0.13135926
153	0xbd9763f0	-0.073921084
154	0x3d0d19f0	0.034448564
155	0x3df1b88d	0.118027784
156	0x3e565949	0.20932497
157	0x3da06319	0.078314014
158	0x3d30393f	0.043023344
159	0xbcdadce0	-0.02671665
160	0x3d9f52d1	0.07779468
161	0xbd0cea1a	-0.034402944
162	0xbde4b51e	-0.11167358
163	0xbcaa1e41	-0.02076638
164	0x3d7632b3	0.060106944
165	0x3d9060bb	0.070497
166	0x3d58628c	0.052828357
167	0x3dbd7c9a	0.092522815
168	0xbc9ec45f	-0.019380746
169	0x3d97fcb9	0.0742125
170	0xbe5820d6	-0.21106276
171	0xbe67e883	-0.2264729
172	0xbe03b9a0	-0.12863779
173	0xbdbab6c5	-0.09116892
174	0xbb1c1f36	-0.0023822314
175	0x3e166990	0.14688706
176	0xbd74803e	-0.059692614
177	0xbc9804ed	-0.018557036
178	0x3e1cbe90	0.15307069
179	0x3d7d1db6	0.061795913
180	0x3e62ae29	0.2213675
181	0x3cf66eec	0.030082189
182	0x3d9cbb5c	0.076529235
183	0xbc433567	-0.011914588
184	0xbcb621b6	-0.022232872
185	0x3cf03872	0.02932379
186	0x3ca23040	0.019798398
187	0x3df20968	0.118182
188	0x3d3648ce	0.044503026
189	0x3d2b13e2	0.04176701
190	0x3d032954	0.032021835
191	0xbd669c8d	-0.056301642
192	0xbb5a73f5	-0.0033333276
193	0xbc00e764	-0.007867668
194	0x3dc0caab	0.09413656
195	0x3dbd2ba4	0.092368394
196	0x3b2c6c99	0.0026309846
197	0x3d2ece29	0.04267708
198	0xbd3fc764	-0.046821013
199	0x3d0d3650	0.034475625
200	0xbd1ac968	-0.037789732
201	0x3e29f4db	0.16597311
202	0xbd279f64	-0.04092349
203	0xbd38c744	-0.04511191
204	0xbd6cae76	-0.057783566
205	0xbc107535	-0.008817007
206	0xbc0dc32a	-0.008652488
207	0xbdacfd17	-0.084467106
208	0x3d20a0e1	0.039215926
209	0xbce2c03f	-0.02767956
210	0xbd35da09	-0.044397388
211	0xbcf6ccdc	-0.030126981
212	0xbcc735f7	-0.024317725
213	0x3d4f90ab	0.050675076
214	0x3d4f9aa8	0.0506846
215	0x3d85a38c	0.06525335
216	0x3dbc645c	0.091988295
217	0xbdad340c	-0.08457193
218	0x3cf378bd	0.029720658
219	0x3d1036cf	0.03520852
220	0xbc174a90	-0.009234086
221	0x3c376845	0.011194293
222	0x3d97a9b9	0.07405419
223	0xbc2af04f	-0.010433271
224	0xbd521ecc	-0.0512989
225	0x3d80d03b	0.06289717
226	0x3da4ac0f	0.0804063
227	0x3cab36f0	0.02090022
228	0x3c456a50	0.012049273
229	0x3d9d3ad2	0.07677235
230	0x3c7976bc	0.015226062
231	0x3cfe7221	0.03106028
232	0xbd25169d	-0.04030477
233	0xbd3e037f	-0.046390053
234	0xbbb30ffe	-0.005464553
235	0xbca1f36c	-0.019769393
236	0x3daab5b3	0.083354376
237	0x3dc18c81	0.09450627
238	0x3d8bceca	0.06826551
239	0x3d0ad8af	0.03389805
240	0xbd57b7e8	-0.05266562
241	0x3cb54b92	0.022130761
242	0x3d0ec7ed	0.034858633
243	0xbb0e8853	-0.0021748736
244	0x3d0c6511	0.034276072
245	0x3d02a153	0.031892132
246	0xbd7ef545	-0.062245626
247	0xbd5bd07b	-0.05366562
248	0xbd8035cf	-0.06260263
249	0x3c83b98f	0.016079692
250	0x3c8d79cd	0.017269993
251	0x3d93c083	0.07214453
252	0xbd1e928e	-0.038713984
253	0x3d477954	0.048699692
254	0x3d549558	0.051900238
255	0xbcceb87d	-0.025234455

layers.0.bias f4 [128]
0	0x3de6ee54	0.11275926
1	0x3d39f308	0.04539779
2	0x3dedcec3	0.11611702
3	0x3da99ca4	0.0828183
4	0x3cc68142	0.024231557
5	0x3d84d466	0.06485824
6	0x3e27ee73	0.16399555
7	0xbd5dd92a	-0.054162182
8	0xbd85ed3d	-0.0653939
9	0x3bdf9c5f	0.006824061
10	0xbdc71780	-0.09721279
11	0xbd94e7a1	-0.07270742
12	0x3d56ccec	0.052441522
13	0xbe172e32	-0.14763716
14	0xbb7661f7	-0.0037595013
15	0xbcdbbc7c	-0.026823275
16	0xbe13e5c3	-0.14443116
17	0xbc624f03	-0.013812783
18	0x3b30105c	0.002686522
19	0xbd982791	-0.07429422
20	0xbd9a5f80	-0.075377464
21	0x3de4fa09	0.11180503
22	0xbbd27523	-0.006422655
23	0xbd9a25cd	-0.07526741
24	0xbce46cc7	-0.0278839
25	0x3b947433	0.0045304536
26	0x3ccd3cff	0.0250535
27	0x3c741748	0.014898129
28	0x3ce5bf4f	0.028045325
29	0x3d4276c6	0.047476552
30	0x3bdc2eb9	0.006719437
31	0x3d1522ee	0.036410265
32	0x3c541e21	0.012946636
33	0x3cb21613	0.021739041
34	0x3e3060e4	0.17224461
35	0xbcba9033	-0.022773838
36	0xbd9d0291	-0.07666505
37	0x3d2d8bac	0.04236953
38	0x3c3a1cc9	0.011359402
39	0x3d9f2873	0.07771387
40	0x3ddb4cb9	0.10707993
41	0x3dda9085	0.10672096
42	0x3bbc1c26	0.0057406602
43	0x3d99d96a	0.075121716
44	0x3c63126d	0.0138593735
45	0x3d7a8cdd	0.061169494
46	0xbd4bc9af	-0.049752887
47	0x3da75f0e	0.08172427
48	0x3c9410dd	0.018074447
49	0xbde7ff3d	-0.1132798
50	0xbc0b123e	-0.008488236
51	0x3d812071	0.06305016
52	0x3d458d9e	0.04823076
53	0x3da7b365	0.08188514
54	0x3dbba6b8	0.091626585
55	0xbd4b7761	-0.049674395
56	0x3d988c04	0.07448581
57	0xbc966a97	-0.018361373
58	0x3ccfa882	0.025348905
59	0xbb0c07b9	-0.0021366908
60	0xbbd4ea81	-0.0064976816
61	0x3e14659c	0.14491886
62	0x3da48759	0.08033628
63	0xbcda0fe0	-0.026618898
64	0xbc34b031	-0.011028335
65	0x3d849b89	0.064749785
66	0xbcc8a725	-0.024493763
67	0x3c861ea5	0.016372034
68	0xbd1c1336	-0.03810426
69	0x3d2dcfb0	0.042434394
70	0x3e100663	0.14064936
71	0x3d217d13	0.03942592
72	0xbd99e9d3	-0.075153016
73	0x3d1b71c5	0.037950296
74	0x3dad49c5	0.08461336
75	0xbb778605	-0.003776909
76	0x3d469b09	0.048487697
77	0x3d6ddd76	0.05807253
78	0xbd9fccd3	-0.07802739
79	0x3e23e325	0.16004618
80	0xbafab5e0	-0.0019127689
81	0xbdae1d3a	-0.08501668
82	0x3d36a10a	0.044587173
83	0x3d90cff4	0.07070914
84	0x3d058895	0.032600958
85	0x3d868ccb	0.06569823
86	0xbd6039d3	-0.054742645
87	0x3d847435	0.06467477
88	0xbc4e2d6c	-0.012584072
89	0x3d8258c8	0.0636459
90	0xbc34c3af	-0.011032983
91	0x3dd618c6	0.10453944
92	0xbda98ab9	-0.08278412
93	0x3d1fa9a3	0.038980138
94	0xbce2d9b7	-0.027691705
95	0xbd5d8ab2	-0.05408735
96	0x3d6a396a	0.05718366
97	0xbb8ec0cb	-0.004356479
98	0xbcb621e0	-0.02223295
99	0xbd2443da	-0.04010377
100	0xbdc42e5d	-0.095791556
101	0xbd51a21a	-0.051179983
102	0xbc56ae69	-0.013103106
103	0x3ddaeab4	0.10689297
104	0xbd64f7ca	-0.055900373
105	0xbd6e11c2	-0.058122404
106	0x3dd92e72	0.10604562
107	0x3d27bf30	0.040953815
108	0x3d80c7a5	0.06288079
109	0xbd31a860	-0.043373466
110	0x3d629a11	0.05532271
111	0x3c921f6d	0.01783725
112	0x3db0d8e1	0.08635116
113	0xbb1c88bb	-0.0023885209
114	0xbd80df90	-0.06292641
115	0x3e09f509	0.1347238
116	0x3b26f82a	0.0025477507
117	0xbba3ff85	-0.0050048255
118	0xbcb861e0	-0.022507608
119	0x3d92e928	0.07173377
120	0xbcba4854	-0.022739567
121	0xbced6713	-0.028979814
122	0xbd1fa0d9	-0.038971756
123	0x3e383144	0.17987543
124	0x3d6865d0	0.05673772
125	0x3cd094d4	0.025461592
126	0x3d877847	0.06614738
127	0x3d777692	0.06041581

layers.2.weight f4 [128, 128]
0	0x3d9a79d3	0.075427674
1	0x3bde51f3	0.0067846715
2	0xbb03430d	-0.002002898
3	0xbdb6e8dc	-0.08931133
4	0x3daf5613	0.08561339
5	0xbd550ec3	-0.05201603
6	0x3d99e0ed	0.07513604
7	0xbdc058db	-0.09391948
8	0x3e07e460	0.13270712
9	0xbdc18b8b	-0.09450444
10	0xbd46100a	-0.04835514
11	0xbcc924ea	-0.024553735
12	0xbc0c893e	-0.008577643
13	0x3df5c218	0.11999911
14	0xbc85ecbb	-0.016348233
15	0xbdba59c0	-0.0909915
16	0x3e12faaf	0.1435344
17	0xbc3114d5	-0.010808189
18	0x3dd1c6cd	0.10242996
19	0x3d9a9e85	0.075497665
20	0xbcc8b749	-0.02450146
21	0xbcadc9c8	-0.02121438
22	0x3d7931d2	0.060838528
23	0x3bf5cef7	0.007501479
24	0x3d63ca90	0.0556131
25	0x3e33a752	0.17544296
26	0xbccf0874	-0.025272585
27	0xbdc3e4e7	-0.09565144
28	0x3d931bfd	0.07183073
29	0x3e3d9a86	0.18515977
30	0xbb3bce89	-0.002865704
31	0x3b9c2e47	0.004766259
32	0xbcbd19a7	-0.023083521
33	0xbdccf6e8	-0.10008031
34	0xbcc2cce3	-0.023779338
35	0x3d9a415a	0.07531996
36	0x3dfc76de	0.123273596
37	0x3dda3e39	0.10656399
38	0x3c8247c5	0.015903363
39	0xbcbd67c9	-0.023120778
40	0xbdca09d1	-0.098651536
41	0x3da5baff	0.08092307
42	0x3dc18606	0.09449391
43	0x3b534760	0.0032238588
44	0xbd56bd8b	-0.052426856
45	0x3cd0885f	0.025455652
46	0x3d921b6c	0.071341366
47	0x3cd7a71d	0.026324803
48	0x3dcad965	0.09904746
49	0x3d0a6dc3	0.033796083
50	0xbd04e023	-0.032440316
51	0x3cdb05e1	0.026736202
52	0x3da1ea96	0.07906072
53	0x3d7eaa5e	0.062174194
54	0xbc388ddd	-0.011264292
55	0xbd63f63e	-0.055654757
56	0x3d9efc78	0.07762998
57	0xbc34adea	-0.0110277925
58	0x3c19332b	0.009350578
59	0x3cbbae42	0.022910241
60	0x3deae897	0.11470144
61	0x3cd278cd	0.025692368
62	0x3d067617	0.032827463
63	0xbb5f076d	-0.0034031526
64	0x3e174a1f	0.14774369
65	0xbdeed1cc	-0.11661109
66	0x3de2bf0e	0.11071597
67	0xbad13085	-0.0015959895
68	0x3a6d7ddd	0.00090595876
69	0xbd1bbf3f	-0.038024183
70	0x3dc8deed	0.09808145
71	0xbd287da8	-0.04113546
72	0x3cbdd50d	0.02317288
73	0x3cac1ddc	0.021010332
74	0xbe170d6a	-0.14751211
75	0xbd03784a	-0.03209714
76	0x3c98afa6	0.018638443
77	0x3db9c7c8	0.090713084
78	0x3dd1241b	0.10211965
79	0xbce8f0bb	-0.028435102
80	0xbbc835d3	-0.006109932
81	0xbc17c399	-0.009262943
82	0x3d385cce	0.04501038
83	0xbe289a99	-0.16465224
84	0x3d0f0675	0.034918267
85	0xbd107ad1	-0.035273377
86	0xbd8354fa	-0.06412692
87	0xbd732ef1	-0.05937094
88	0xbdc39ff1	-0.09551991
89	0x3c778844	0.015108172
90	0xbc4c58ee	-0.012472374
91	0x3cbb281b	0.022846272
92	0xbd8ed023	-0.06973293
93	0xbd4ef6bf	-0.050528284
94	0xbd177e8b	-0.036985915
95	0xbd894b12	-0.06703772
96	0x3b114796	0.0022167913
97	0x3dab3f3b	0.0836167
98	0x3d925453	0.0714499
99	0x399b7495	0.00029650764
100	0x3d0d99d4	0.03457053
101	0xbd9249e7	-0.07143002
102	0x3d8427a1	0.06452871
103	0xbd99d1dd	-0.07510731
104	0xbd90648e	-0.07050429
105	0xba78661f	-0.00094756664
106	0x3bada07f	0.0052986736
107	0xbc4caa79	-0.012491816
108	0xbd3cede8	-0.046125323
109	0x3d7cacc6	0.061688207
110	0x3d37f49c	0.044911012
111	0xbcc319f1	-0.02381608
112	0xbd877197	-0.066134624
113	0xbd274505	-0.040837307
114	0x3d243b00	0.04009533
115	0x3dee9bf8	0.116508424
116	0x3d529e16	0.051420294
117	0xbc4580e4	-0.012054656
118	0x3ca392ab	0.019967398
119	0xbdc00e41	-0.09377719
120	0x3e031fb7	0.12805067
121	0xbd09eecb	-0.033674996
122	0xbd9ef66b	-0.07761844
123	0xbc220716	-0.009889385
124	0x3d754fe4	0.059890643
125	0xbd9b63a4	-0.07587364
126	0x3d6fe8a7	0.058571484
127	0xbd6ea2ce	-0.05826073
128	0x3dc209ff	0.09474563
129	0xbdd15784	-0.102217704
130	0xbd582ef5	-0.052779157
131	0x3c91077e	0.017703768
132	0xbd9a1b89	-0.07524783
133	0x3caee624	0.021349974
134	0xbd3f6637	-0.04672834
135	0x3d33f3bd	0.04393362
136	0xbda27b38	-0.07933658
137	0xbb4b0cf5	-0.0030983065
138	0xbc22a206	-0.009926325
139	0x3d8b0ddf	0.06789755
140	0xbdcdbefe	-0.100461945
141	0x3db4abb2	0.08821811
142	0x3bcd588c	0.006266659
143	0xbd2da330	-0.042391956
144	0x3e0253c1	0.12727262
145	0xbd4bf73f	-0.04979634
146	0xbd43b92b	-0.04778401
147	0x3bba35bb	0.0056826747
148	0xba8a6781	-0.0010559411
149	0xbd7b8ac7	-0.061411645
150	0xbce39b84	-0.027784117
151	0xbcb17546	-0.021662366
152	0xbc776cad	-0.015101594
153	0xbde1bd48	-0.11022431
154	0x3d69af2e	0.05705183
155	0xbdd88483	-0.105721496
156	0xbdc3b4bd	-0.095559575
157	0x3d8a5c45	0.0675588
158	0xbcf02072	-0.029312346
159	0xbcae2839	-0.021259414
160	0x3d247123	0.040146958
161	0x3d0c3f55	0.034240086
162	0x3ac63d53	0.0015124477
163	0x3dd8c8bb	0.10585161
164	0x3db1939d	0.08670733
165	0x3d7a0039	0.06103537
166	0x3cc8b17c	0.024498694
167	0xbdaac07a	-0.08337493
168	0xbda44ec0	-0.08022833
169	0x3dbde4d1	0.09272159
170	0x3ce91a7b	0.02845501
171	0xbd1a6e90	-0.037703097
172	0x3d1edc47	0.03878429
173	0xbd95d1dd	-0.07315419
174	0xbcbd3754	-0.023097672
175	0xbde15a88	-0.110035956
176	0x3cf468a4	0.029835053
177	0x3db82cb1	0.08992899
178	0x3d768c9f	0.0601927
179	0x3a192180	0.00058414787
180	0x3d400192	0.046876498
181	0x3d504bc7	0.050853517
182	0x3db27584	0.087138206
183	0x3db2bd36	0.08727495
184	0x3c67370f	0.014112248
185	0xbd18fd41	-0.037350897
186	0xbdb9c8d8	-0.09071511
187	0x3c37a3ec	0.011208516
188	0x3d8364c5	0.06415705
189	0x3de59652	0.11210312
190	0xbdcc2819	-0.099685855
191	0x3d5095c4	0.050924078
192	0x3ddb66cf	0.107129686
193	0xba9915cf	-0.0011679473
194	0x3d6ce4e8	0.05783549
195	0xbc851fdc	-0.016250543
196	0x3b84fa1c	0.0040581357
197	0x3ad73680	0.001641944
198	0x3c58206a	0.013191322
199	0x3db9ce49	0.09072549
200	0x3d1a2136	0.03762933
201	0xbceda62f	-0.029009907
202	0x3cbdc3a1	0.023164572
203	0x3d0f2820	0.034950376
204	0xbb7841de	-0.0037881057
205	0xbd66182d	-0.0561754
206	0xbd11f5fb	-0.035634976
207	0xbc898572	-0.016787264
208	0x3be2ee8f	0.006925411
209	0x3d87d971	0.066332705
210	0xbd483133	-0.048875045
211	0x3d898b5a	0.06716032
212	0x3cfa3954	0.030544914
213	0xbd37f9f0	-0.044916093
214	0xbd381e24	-0.04495062
215	0x3e7576ec	0.23971146
216	0x3c9891d9	0.018624233
217	0x3dae6067	0.08514481
218	0xbdc1ff78	-0.09472555
219	0x3d7824d3	0.060581993
220	0x3d84d3a5	0.064856805
221	0xbd58b80e	-0.052909903
222	0x3db4a3d0	0.08820307
223	0xbd19cfd8	-0.03755173
224	0x3d1c201d	0.038116563
225	0x3d551c28	0.052028805
226	0xbdbe4167	-0.09289818
227	0xbbf93dcc	-0.0076062437
228	0x3c6892ae	0.014195127
229	0xbd727be4	-0.059200183
230	0x3d2210da	0.039566852
231	0xbc48501e	-0.012226133
232	0x3c3a99a7	0.011389173
233	0xbcdef802	-0.027217869
234	0x3d824a05	0.06361774
235	0x3db0fa4c	0.0864149
236	0x3b59e486	0.0033247783
237	0xbdbc9c10	-0.09209454
238	0x3d1d594b	0.038415235
239	0x3cd3b876	0.025844794
240	0xbc4a0963	-0.0123313395
241	0x3dafc51c	0.085825175
242	0x3c8102bb	0.015748372
243	0x3db6776c	0.08909497
244	0x3d42c5d5	0.04755195
245	0x3d417484	0.04723026
246	0xbd32c060	-0.043640494
247	0xbdc7f2e3	-0.09763124
248	0xbce860fd	-0.02836656
249	0xbd8801ea	-0.0664099
250	0x3d4c9776	0.049949132
251	0x3e054ce2	0.1301761
252	0x3d96b36e	0.07358442
253	0x3d2dde0d	0.042448092
254	0xbd231b2a	-0.039820828
255	0x3d08f8f1	0.033440534

layers.2.bias f4 [128]
0	0xbdbfb22e	-0.09360157
1	0xbda2994f	-0.079393975
2	0xbc83675f	-0.016040502
3	0x3da7280c	0.08161935
4	0xbc397300	-0.011318922
5	0xbc789202	-0.01517153
6	0xbd31794e	-0.043328576
7	0xbd5e6821	-0.054298524
8	0xbdb7d423	-0.08976009
9	0xbd5031c9	-0.05082873
10	0x3da65044	0.08120778
11	0x39356bbb	0.00017301638
12	0xbc4872bc	-0.012234386
13	0x3d09c062	0.033630736
14	0xbcaf76b4	-0.021418907
15	0xbcfcb7d8	-0.030849382
16	0x3c8f83da	0.017518926
17	0xbdb34cea	-0.087549046
18	0xbd9a8d87	-0.075465254
19	0xbd8fe0fd	-0.07025335
20	0x3de45d00	0.11150551
21	0x3d714c9a	0.058910944
22	0x3da752fb	0.08170124
23	0x3bc7b2cb	0.006094312
24	0xbd13152d	-0.035908867
25	0x3d9cdb65	0.07659034
26	0x3c7e9c0d	0.015540135
27	0xbbb92170	-0.005649738
28	0x3d0a3ca5	0.03374924
29	0xbd48d5e3	-0.049032103
30	0xbd6dc27c	-0.058046803
31	0x3c838898	0.016056344
32	0x3cfdc906	0.030979645
33	0xbd449331	-0.047991935
34	0x3d283b58	0.04107222
35	0xbd883a94	-0.06651798
36	0xbd1366ac	-0.035986587
37	0x3c593169	0.013256409
38	0xbcb07869	-0.021541791
39	0xbc9142ca	-0.017732043
40	0xbcccd40d	-0.025003457
41	0xbd59f940	-0.05321622
42	0x3df595c6	0.11991458
43	0xbd560365	-0.05224933
44	0x3be21ceb	0.00690042
45	0x3d49a568	0.04923001
46	0x3c82dcab	0.015974363
47	0x3d6f4768	0.058417708
48	0x3d959b13	0.07304969
49	0x3b56fd29	0.0032804704
50	0x3d9f23bc	0.07770488
51	0x3dafcf7a	0.08584495
52	0x3d83f159	0.06442518
53	0x3cef56a4	0.029216118
54	0xbd181859	-0.037132595
55	0x3a1e0a61	0.0006028768
56	0xbd9635b4	-0.07334462
57	0x3d86ffae	0.06591736
58	0x3d79bbad	0.060969997
59	0x3c5612a3	0.013065967
60	0xbda3b451	-0.07993377
61	0xbbcd3d5b	-0.0062634177
62	0xbdb21190	-0.08694756
63	0x3dbca500	0.09211159
64	0xbbab6474	-0.005230481
65	0x3db2cb25	0.08730153
66	0xbbef37d4	-0.0073003564
67	0x3d659760	0.056052566
68	0x3d460366	0.048343085
69	0xbd610d32	-0.054944225
70	0x3d034e77	0.03205725
71	0xbd73c98d	-0.059518386
72	0xbdb65f30	-0.08904874
73	0x3ca9327e	0.02065396
74	0x3d1cd54f	0.038289364
75	0x3d573ed2	0.052550144
76	0x3daf66bd	0.08564518
77	0xbe05d354	-0.13068897
78	0xbd098b10	-0.033579886
79	0x3d9c3869	0.07627947
80	0x3dd849ae	0.10560928
81	0xbd86874e	-0.06568776
82	0x3d8ccfbd	0.068755604
83	0xbd805108	-0.062654555
84	0x3879c0b5	5.95457e-05
85	0xbdad3103	-0.08456614
86	0xbd989180	-0.07449627
87	0x3c857f8f	0.016296176
88	0x3bd3dcce	0.006465531
89	0x3cf98266	0.030457687
90	0xbd596bbd	-0.053081263
91	0x3d69d67b	0.05708931
92	0x3a427a97	0.000741878
93	0x3d0c48af	0.034249004
94	0xbc8ba989	-0.017048614
95	0x3d75da57	0.06002268
96	0x3d69dfbe	0.057098143
97	0xbda791db	-0.081821166
98	0x3d13103d	0.035904158
99	0x3dc1d26a	0.094639614
100	0x3c8f8a90	0.017522126
101	0x3d510a1d	0.051035035
102	0x3d297a17	0.0413762
103	0xbd30eabb	-0.043192606
104	0xbd828fc2	-0.06375076
105	0xbd06f36a	-0.03294698
106	0x3dd88513	0.10572257
107	0x3da42786	0.08015351
108	0xbd39f2df	-0.045397636
109	0x3c556290	0.013023987
110	0xbc19c804	-0.009386066
111	0xbd5a4de2	-0.05329693
112	0x3d351d3c	0.044217333
113	0x3d20b144	0.039231554
114	0xbd8db44f	-0.06919157
115	0xbdbc1d57	-0.09185284
116	0x3cd16f96	0.025565904
117	0xbc93e952	-0.018055592
118	0xbda788d5	-0.081803955
119	0xbcd964df	-0.026537357
120	0x3dd4c5c9	0.10389287
121	0x3d925e0b	0.071468435
122	0xbd524ce4	-0.05134286
123	0xbd99f07e	-0.07516573
124	0xbd5d3c9d	-0.054012883
125	0x3d045317	0.032305803
126	0x3d807d23	0.06273868
127	0x3c2e1c21	0.010626824

layers.4.weight f4 [64, 128]
0	0xba860f7e	-0.0010228006
1	0x3dfbe5c0	0.12299681
2	0x3da951b1	0.082675345
3	0x3da25d32	0.07927932
4	0xbdadeedc	-0.084928244
5	0x3cf88e85	0.030341396
6	0x3cce36fd	0.025172705
7	0x3d085b5b	0.03329025
8	0xbda2429e	-0.079228625
9	0x3d22afbe	0.039718382
10	0x3d80b5b4	0.06284657
11	0xbd71321a	-0.05888567
12	0xbdada114	-0.08477989
13	0xbd747e2e	-0.059690647
14	0x3d7b9622	0.061422475
15	0x3d656a8d	0.056009818
16	0x3db12db8	0.08651298
17	0x3dfd4cdc	0.123681754
18	0x3cd3e5f5	0.025866488
19	0x3d80582c	0.062668175
20	0x3d810aa0	0.06300855
21	0xbdfef6ea	-0.12449439
22	0x3e151904	0.14560324
23	0x3dc39664	0.09550169
24	0xbcc3cb23	-0.023900574
25	0x3d1134d8	0.035450786
26	0x3d453162	0.0481428
27	0xbc1677ea	-0.009183863
28	0x3e00479a	0.12527314
29	0x3da50d35	0.0805916
30	0xbe08fb21	-0.13377048
31	0xbcb738bf	-0.022365926
32	0x3d2bc794	0.04193838
33	0x3d2078c9	0.03917769
34	0xbdc85c60	-0.09783244
35	0x3d2d59f7	0.042322125
36	0x3d6358bb	0.05550454
37	0x3d0a4858	0.0337604
38	0xbd081724	-0.033225194
39	0xbdfe7fac	-0.12426695
40	0xbc8f96a8	-0.017527893
41	0xbc40bcd6	-0.011763772
42	0x3ceaceb6	0.02866302
43	0x3de2a15c	0.11065933
44	0xbc19c79b	-0.009385969
45	0x3de204f5	0.11036102
46	0x3d6461d7	0.05575737
47	0x3dbb1038	0.09133953
48	0xbc889495	-0.016672412
49	0xba4cec56	-0.0007817199
50	0x3d4c8821	0.04993451
51	0xbceabd44	-0.028654702
52	0x3e333fb8	0.17504776
53	0x3cbab58c	0.022791646
54	0xbded727e	-0.11594103
55	0x3ba57e7c	0.0050504785
56	0x3d360d32	0.044446178
57	0xbe037862	-0.12838891
58	0xbda79520	-0.0818274
59	0xbdb7c7d2	-0.089736596
60	0x3bd229ed	0.0064136893
61	0x3dc3d26e	0.09561621
62	0xbda431f7	-0.080173425
63	0x3d7500e6	0.05981531
64	0x3d2b7992	0.041863985
65	0xbb479d38	-0.00304587
66	0xbd3101b7	-0.043214526
67	0xbd17451c	-0.036931142
68	0xbda7f6e1	-0.08201385
69	0x3beb64e6	0.007183659
70	0x3dacc2b6	0.08435576
71	0x3d08903a	0.03334067
72	0xbcf89ec9	-0.030349152
73	0x3d6e8b78	0.058238477
74	0x3d95aec2	0.07308723
75	0xbdaf7f8d	-0.0856925
76	0x3cae3eb1	0.021270128
77	0xbdeeef00	-0.116666794
78	0xbdb23253	-0.08701005
79	0x3e234951	0.15945937
80	0x3d649f06	0.05581572
81	0x3d146173	0.036225747
82	0x3d7a4393	0.0610996
83	0x3ca65d6d	0.02030822
84	0xbd49b329	-0.049243126
85	0x3d46c173	0.04852433
86	0xbd45be9c	-0.048277482
87	0x3dbb466c	0.09144291
88	0x3cab20ac	0.020889603
89	0xbd7d14f3	-0.061787557
90	0xbc92299e	-0.01784211
91	0xbd58f9ae	-0.052972488
92	0x3d9554ac	0.072915405
93	0xbd151466	-0.036396407
94	0xbdc142f2	-0.09436597
95	0x3c8321b0	0.016007274
96	0xbdabd344	-0.08389905
97	0xbd29135f	-0.04127824
98	0xbb5d32e8	-0.0033752266
99	0xbd23d332	-0.039996333
100	0xbc8239c2	-0.015896682
101	0x3d6fe882	0.058571346
102	0xbd08f7fa	-0.033439614
103	0x3d2b9590	0.04189068
104	0x3da85cb8	0.0822081
105	0x3da392b9	0.079869695
106	0x3c635e6d	0.013877493
107	0x3e0c66a4	0.1371103
108	0x3bc6b1e0	0.006063685
109	0xbe217a41	-0.15769292
110	0x3dc07e5f	0.093991034
111	0x3dabf32d	0.083959915
112	0xbcc0d6f8	-0.023540005
113	0x3df01db8	0.117244184
114	0xbb8ef312	-0.0043624723
115	0x3c400b53	0.01172145
116	0x3d0a34ba	0.03374169
117	0x3d5f47e6	0.054511927
118	0x3d88a972	0.06672944
119	0x3dedb67e	0.11607073
120	0x3d4dcf30	0.050246418
121	0xbdb5e7d5	-0.08882109
122	0x3e06a590	0.13149095
123	0xbd3e53d2	-0.046466656
124	0xbc19057a	-0.009339685
125	0x3d293179	0.041306946
126	0x3dacc6e2	0.084363714
127	0x3e30b53d	0.17256637
128	0x3c85e182	0.016342882
129	0x3cc4aedc	0.02400916
130	0xbd7041d0	-0.058656514
131	0xbc4d9a32	-0.01254897
132	0xbd179343	-0.037005674
133	0x3c0d4f80	0.008624911
134	0xbcb71e87	-0.022353424
135	0x3d35bb0e	0.044367842
136	0xbdb0d94d	-0.08635197
137	0xbd350542	-0.044194467
138	0x3cfd945b	0.03095453
139	0x39e58900	0.00043780357
140	0x3c940111	0.018066915
141	0xbbb87370	-0.0056289956
142	0xbd0a86c7	-0.03381994
143	0xbd2c2b3e	-0.042033426
144	0x3c370338	0.011170201
145	0x3c90aaec	0.017659627
146	0xbcfd096b	-0.03088828
147	0xbca93bec	-0.020658456
148	0x3cb6fb0c	0.022336505
149	0x3ce0e231	0.027451606
150	0x3d33ec4e	0.04392653
151	0xbd7a6bd5	-0.061137993
152	0x3d382cd2	0.04496462
153	0xbd6f2c2a	-0.058391728
154	0x3d266196	0.04062041
155	0xbd99a844	-0.07502797
156	0xbd3b5b05	-0.0457411
157	0xbd95da5b	-0.073170386
158	0xbd0d66f5	-0.034522016
159	0x3aa7e740	0.0012810007
160	0x3d4d35d9	0.05010018
161	0xbb030160	-0.0019989833
162	0x3d210252	0.039308853
163	0xbcf570e8	-0.029961064
164	0xbb7a4351	-0.0038187096
165	0xba398080	-0.0007076338
166	0xbd2fc4ed	-0.042912412
167	0x3d9aaa4e	0.07552014
168	0xbb68df9c	-0.0035533672
169	0xbc0cbb7f	-0.008589624
170	0x3d3d3c83	0.046200287
171	0x3d3aea7a	0.04563377
172	0xbd33865a	-0.0438293
173	0xbbce798b	-0.00630111
174	0x3bb533d0	0.005529858
175	0xbce6491c	-0.028111033
176	0x3b446a33	0.0029970526
177	0x3d812dfd	0.063076
178	0x3d8d47b5	0.06898443
179	0x3cbcd21b	0.023049405
180	0x3daae9e6	0.08345394
181	0x3d4f22e5	0.050570387
182	0xbdb72203	-0.08942034
183	0xbd559502	-0.052144058
184	0x3d1db3de	0.038501613
185	0x3d534f5e	0.051589362
186	0x3c292ed3	0.010326105
187	0x3d834174	0.064089686
188	0xbd8bd19d	-0.0682709
189	0xbd446583	-0.04794837
190	0xbd901b4c	-0.070364565
191	0x3ca3c0ff	0.019989489
192	0xbb3d2301	-0.0028859975
193	0xbca2ef27	-0.019889427
194	0xbccf086e	-0.025272574
195	0x3cd63060	0.026146114
196	0xbb995b81	-0.0046800976
197	0x3d41ef57	0.047347393
198	0xbd6a4d04	-0.057202354
199	0xbd7045be	-0.05866026
200	0xbd840af5	-0.064474024
201	0x3d9ff3f7	0.078102045
202	0x3cbab920	0.022793353
203	0xbdb2a756	-0.08723323
204	0xbd70e9cf	-0.058816727
205	0x3da9c91f	0.08290314
206	0xbd8082d2	-0.06274952
207	0x3d99e3e8	0.07514173
208	0x3b1bc839	0.0023770465
209	0xbd97b4bf	-0.074075215
210	0xbc9bcbf4	-0.01901815
211	0xbcdf5a66	-0.027264785
212	0xbd86fce9	-0.065912075
213	0xbd151fd5	-0.03640731
214	0xbba06067	-0.0048943046
215	0x3cb335d7	0.021876259
216	0x3cb8e4dc	0.022570066
217	0xbc89c8a0	-0.016819298
218	0x3d38316f	0.04496902
219	0xbbf02148	-0.007328186
220	0xbd19377b	-0.037406426
221	0xbc99f2f3	-0.018792605
222	0xbce977f7	-0.028499587
223	0x3ce2288e	0.027607229
224	0xbcd61c32	-0.026136491
225	0xbdb38eef	-0.08767497
226	0x3cf9a2f5	0.030473212
227	0x3d5caa29	0.053873215
228	0xbd591cb9	-0.053005908
229	0x3bb30c80	0.0054641366
230	0xbc8d08c8	-0.017216101
231	0xbcd977d3	-0.026546394
232	0xbd236bdc	-0.039897785
233	0xbd764d39	-0.06013224
234	0x3d337529	0.043812905
235	0xbd5c6850	-0.053810418
236	0x3d18d9d6	0.03731712
237	0xbd7c7e62	-0.061643966
238	0x3afdb383	0.0019355867
239	0x3c426d94	0.011866946
240	0x3da5a1ad	0.08087478
241	0xbd0310a7	-0.031998303
242	0x3cdee3cd	0.027208233
243	0x3ca0db40	0.019635797
244	0xbcc5518e	-0.02408674
245	0xbd8d065e	-0.0688598
246	0xbcca702f	-0.024711696
247	0xbc367f81	-0.011138798
248	0x3c27f6ae	0.010251684
249	0xbd6733cb	-0.056445878
250	0x3d4ec93a	0.050484873
251	0x3d9f3705	0.07774166
252	0xbc00f4e9	-0.007870891
253	0x3cc097f4	0.023509957
254	0xbd825f9d	-0.06365893
255	0xbc8c3ed1	-0.017119797

layers.4.bias f4 [64]
0	0xbd84471e	-0.06458877
1	0xbda564db	-0.08075877
2	0x3da5266a	0.080639675
3	0xbc9f3f2b	-0.0194393
4	0xbd4b145e	-0.04957997
5	0x3da7e5eb	0.0819815
6	0xbb473494	-0.003039633
7	0xbc4c4d58	-0.012469612
8	0x3bd4facc	0.006499624
9	0xbd86b532	-0.06577529
10	0x3cb510dd	0.022102768
11	0x3d233a62	0.0398506
12	0x3d9fc9ed	0.07802186
13	0xbd930a84	-0.0717974
14	0xbd33f3ed	-0.043933798
15	0xbdde9dbb	-0.108699284
16	0xbcca781a	-0.024715472
17	0x3dc87fd1	0.09790004
18	0xbd92bab3	-0.07164516
19	0xbd74c887	-0.05976155
20	0x3bfebf6c	0.007774284
21	0xbdcacb56	-0.099020645
22	0x3d15ce08	0.03657344
23	0xbd735e8b	-0.059416335
24	0x3c935173	0.017983174
25	0x3d879d8c	0.066218466
26	0x3d488a66	0.048960112
27	0xbd8964d6	-0.06708686
28	0x3d2787d6	0.040901028
29	0xbd690e79	-0.056898568
30	0x3dd09d45	0.10186247
31	0xbc1d5f65	-0.009605263
32	0x3cdde626	0.027087282
33	0xbb9b8719	-0.0047463295
34	0xbc169702	-0.0091912765
35	0x3c683257	0.014172158
36	0xbcac8f9c	-0.021064572
37	0xbd9cc88a	-0.07655437
38	0xbd02efc6	-0.031966947
39	0xbd3b0a3f	-0.04566407
40	0xbcb7314a	-0.02236237
41	0x3d772fdc	0.060348377
42	0xbd840298	-0.06445807
43	0x3cca0fd1	0.024665745
44	0x3b292606	0.0025810017
45	0xbc19beac	-0.009383839
46	0xbbec882f	-0.007218383
47	0x3c87fc09	0.016599672
48	0x3c7d8123	0.015472683
49	0x3d9a0058	0.07519597
50	0xbcad1880	-0.021129847
51	0x3b802416	0.003910552
52	0xbcf1ab4e	-0.02950063
53	0x3d777bfc	0.060420975
54	0xbdc377d7	-0.09544342
55	0xbd77fcbe	-0.060543768
56	0xbccfb9a1	-0.02535707
57	0x3da92e47	0.0826078
58	0xbc50bff5	-0.012741079
59	0xbc4f361a	-0.012647176
60	0x3cf21a9c	0.029553704
61	0xbdbc2032	-0.09185828
62	0xbd254b31	-0.04035491
63	0xbd93f1f4	-0.07223883

layers.7.weight f4 [64, 64]
0	0xbd53dbf6	-0.051723443
1	0xbd301e11	-0.042997424
2	0xbdb37b38	-0.087637365
3	0xbcc55cfa	-0.024092186
4	0x3a25b74d	0.00063215644
5	0xbd6e7d4f	-0.058224972
6	0x3df10c17	0.11769884
7	0x3e1ea75c	0.1549353
8	0xbdb51085	-0.088410415
9	0x3d72ebbf	0.059306856
10	0xbd3d4f52	-0.046218224
11	0xbd33f26d	-0.043932367
12	0x3dcb08ee	0.099138126
13	0x3bbd1d60	0.005771324
14	0xbd9c878f	-0.07643043
15	0x3e0bcbed	0.1365201
16	0xbd019d96	-0.031644426
17	0xbdb67b90	-0.089102864
18	0xbc58e191	-0.013237373
19	0x3e067696	0.13131174
20	0xbd9374fc	-0.072000474
21	0x3dc5c17c	0.09656045
22	0x3c952fc7	0.018211259
23	0xbd8e4372	-0.06946458
24	0xbd761693	-0.060080122
25	0x3daeb871	0.08531273
26	0xbd30a2b7	-0.043123927
27	0x3d15f9a9	0.036615048
28	0xbdb8d457	-0.090248756
29	0xbc046483	-0.0080806045
30	0xbde11b52	-0.10991539
31	0x3d74011a	0.059571363
32	0x3da80149	0.0820337
33	0x3de65f13	0.11248603
34	0xbc97a353	-0.018510496
35	0x3c510858	0.012758337
36	0xbd5ad538	-0.053425997
37	0x3ca0e814	0.019641913
38	0x3e0845c1	0.13307859
39	0x3e4f0d10	0.20219827
40	0x3e1cb6dd	0.15304132
41	0xbde06933	-0.10957565
42	0x3cf95673	0.03043673
43	0xbe2d463d	-0.16921325
44	0xbdec7fff	-0.11547851
45	0x3ca139ef	0.019680945
46	0x3d964ab3	0.073384665
47	0x3bb0030a	0.005371456
48	0x3d64f47c	0.05589722
49	0xbc578c09	-0.013155946
50	0xbc9c33ff	-0.019067762
51	0x3e2e1108	0.16998684
52	0x3d806ff2	0.06271352
53	0xbd3ef9c9	-0.046624932
54	0xbd30ad05	-0.043133754
55	0x3e284352	0.1643193
56	0x3d7fba1c	0.062433347
57	0x3cc68812	0.024234805
58	0xbd1206f1	-0.03565115
59	0xbd1721d4	-0.036897495
60	0x3e17f2cc	0.14838713
61	0x3c281b7e	0.010260461
62	0xbceb970a	-0.028758544
63	0x3e07ac17	0.13249241
64	0x3dbbb7bc	0.09165904
65	0x3cd9b804	0.026577003
66	0xbd723b9a	-0.05913887
67	0xbd1756c3	-0.036947977
68	0xbd248c93	-0.040173125
69	0xbd0fada3	-0.035077702
70	0xb8abb956	-8.188437e-05
71	0xbe196424	-0.14979607
72	0xbd738bd8	-0.059459537
73	0x3c98dbc0	0.018659472
74	0xbd98c643	-0.074596904
75	0xbe1763ee	-0.14784214
76	0xbce7d372	-0.028299067
77	0xbd9ff994	-0.07811275
78	0x3d6d8914	0.057992056
79	0xbc34ae9e	-0.01102796
80	0x3cbb60d4	0.02287332
81	0xbbff0166	-0.007782149
82	0xbc95711b	-0.01824241
83	0xbd7f3eb2	-0.06231565
84	0x3da4f457	0.080544166
85	0x3d916dc0	0.07101011
86	0x3d470ccd	0.048596192
87	0xbdb11dfd	-0.08648298
88	0x3d914690	0.07093537
89	0xbd82b30b	-0.06381806
90	0xbad8202e	-0.0016489082
91	0x3cb661f6	0.022263508
92	0x3d79df2b	0.061003845
93	0x3d978900	0.073991776
94	0xbe038c4e	-0.1284649
95	0xbe01e381	-0.12684442
96	0xbdbcba7e	-0.09215258
97	0x3d1aa479	0.03775451
98	0xbe0f0355	-0.13966115
99	0x3dd3cfaf	0.10342347
100	0x3dca555a	0.09879561
101	0xbd3b2324	-0.04568781
102	0xbd13f608	-0.036123306
103	0xbc00f7d2	-0.007871585
104	0xbd1d9b85	-0.038478393
105	0xbe150951	-0.14554335
106	0x3d8b7f20	0.068113565
107	0xbde6ab1d	-0.11263106
108	0x3e07d75d	0.13265748
109	0x3bf8818b	0.007583802
110	0x3c9b9204	0.018990524
111	0x3e24220e	0.16028616
112	0x3dd7ee70	0.10543525
113	0x3daae093	0.083436154
114	0x3dfc33fe	0.12314604
115	0x3e0a04cf	0.13478397
116	0x3db61271	0.08890236
117	0x3debc5b7	0.115123205
118	0xbcc72772	-0.024310801
119	0x3dafddec	0.0858725
120	0x3d03191a	0.03200636
121	0xbd1359a1	-0.03597415
122	0x3e1dec1e	0.15422103
123	0xbd9861dc	-0.0744054
124	0xbe1bf158	-0.15228784
125	0x3dd3475c	0.10316345
126	0x3e296b3b	0.16544811
127	0x3dbba9ca	0.09163244
128	0x3d121233	0.035661887
129	0xbd8b1b69	-0.067923374
130	0x3d8bcdef	0.06826388
131	0x3cce4007	0.025177015
132	0xbc864e1a	-0.016394664
133	0x3ddfbf0e	0.10925113
134	0xbd4d286d	-0.05008738
135	0xbe4188e1	-0.18899871
136	0x3e3c16ef	0.18368123
137	0x3e06b5aa	0.13155237
138	0xbdb8a8e3	-0.090165876
139	0x3b851202	0.0040609846
140	0xbc7cb0df	-0.015423029
141	0x3d9d3e5f	0.07677912
142	0xbbfeb6fa	-0.0077732773
143	0x3ccaac7d	0.024740452
144	0xbd17a0a0	-0.03701842
145	0x3d87b177	0.066256456
146	0x3e188d89	0.14897741
147	0x3da8fa18	0.082508266
148	0x3d75988a	0.059959926
149	0xbd94b259	-0.072605796
150	0xbdf3d71f	-0.119062655
151	0xbbef1285	-0.007295909
152	0x3cc21bce	0.023694899
153	0xbda97f4b	-0.08276232
154	0xbd4a85eb	-0.04944412
155	0xbdbea839	-0.0930943
156	0xbcc925be	-0.02455413
157	0xbb75eee9	-0.0037526435
158	0xbdc27312	-0.09494604
159	0xbe828967	-0.25495455
160	0xbc3337b0	-0.01093857
161	0xbbc7f2d6	-0.0061019463
162	0x3d926abd	0.07149265
163	0x3b7eca5a	0.0038877935
164	0x3daf9049	0.08572442
165	0xbd7bb126	-0.06144824
166	0xbe2b92ef	-0.1675527
167	0xbda6e6e6	-0.08149509
168	0xbe39d8e2	-0.1814914
169	0x3db13ebc	0.08654544
170	0x3de92db6	0.11385672
171	0xbd30f319	-0.043200586
172	0x3e373eed	0.17895098
173	0x3dcd3da0	0.1002152
174	0xbc299a5c	-0.010351744
175	0x3d961b60	0.0732944
176	0x3e29ff62	0.16601327
177	0xbe4adb02	-0.19810107
178	0x3dc54ade	0.096334204
179	0x3cbaa1db	0.022782257
180	0xbd307740	-0.043082476
181	0xbc990e52	-0.018683586
182	0xbe16be68	-0.14721072
183	0x3d200dcd	0.03907566
184	0x3d9ee503	0.07758524
185	0xbdf9f5f6	-0.122051165
186	0xbd9bf248	-0.07614571
187	0x3d946081	0.07244969
188	0xbd1775ae	-0.036977462
189	0x3d21c9d9	0.039499138
190	0xbcc424c4	-0.023943312
191	0xbb30e77e	-0.002699345
192	0xbc500c7d	-0.01269829
193	0x3d65881c	0.056038007
194	0xbdcf5931	-0.10124434
195	0x3df7437d	0.12073419
196	0xbe1f90a7	-0.15582524
197	0xbdb56537	-0.08857196
198	0xbd4bf1de	-0.04979121
199	0x3dd8df9e	0.105895266
200	0xbd4a64a8	-0.0494124
201	0x3e08bac7	0.133525
202	0xbd1c1895	-0.03810938
203	0xbd5feced	-0.05466931
204	0x3dd5b7da	0.104354575
205	0xbb0cd940	-0.0021491796
206	0x3c7d95b8	0.01547759
207	0x3dfbecbe	0.12301014
208	0x3d2bbffd	0.04193114
209	0x3d5e335f	0.05424821
210	0xbd951560	-0.072794676
211	0x3d92d6c3	0.07169869
212	0xbdb801b3	-0.08984699
213	0xbd6af877	-0.05736586
214	0x3c002199	0.00782051
215	0x3d6a1fbf	0.05715918
216	0xbd8e9ad3	-0.06963124
217	0xbd542ea9	-0.05180231
218	0x3c2cdd1f	0.010550766
219	0x3e3fc2a9	0.187266
220	0xbd88bed7	-0.06677025
221	0xbc4962cd	-0.012291622
222	0xbdb2661b	-0.08710881
223	0x3e021b98	0.12705839
224	0xbd2080fb	-0.039185505
225	0x3e15d379	0.14631452
226	0x3e008433	0.1255043
227	0x3da80d96	0.08205716
228	0xbc84c1b7	-0.016205652
229	0xbd275a1e	-0.040857427
230	0x3dbf7f25	0.09350423
231	0x3df5f26c	0.12009129
232	0xbd545e30	-0.051847637
233	0xbcbfe0f6	-0.0234227
234	0xbca65e39	-0.0203086
235	0xbd88fe67	-0.066891484
236	0xbd58121c	-0.052751645
237	0x3d6ff52c	0.058583423
238	0x3d61001c	0.054931745
239	0x3d159688	0.03652051
240	0x3e0b250d	0.13588353
241	0x3d769df5	0.060209233
242	0x3deaca7f	0.11464404
243	0x3df44237	0.11926692
244	0x3d7ebdc5	0.062192697
245	0x3df0e756	0.11762874
246	0x3d34c12c	0.044129536
247	0x3dca270f	0.09870731
248	0x3ca12e26	0.019675326
249	0xbce91ac4	-0.028455146
250	0x3d8f7740	0.07005167
251	0x3c94f354	0.018182434
252	0x3dc538f5	0.09630004
253	0x3d928207	0.07153707
254	0x3e0d7288	0.13813221
255	0x3e2ec32b	0.17066638

layers.7.bias f4 [64]
0	0xbd2ef230	-0.042711437
1	0x3d11a378	0.035556287
2	0x3e0700db	0.1318392
3	0xbcc74308	-0.024323955
4	0x3d55919a	0.05214081
5	0x3dfc11ce	0.123080835
6	0x3e28ddb7	0.16490828
7	0xbb0b65c8	-0.0021270383
8	0x3e1e9d44	0.1548968
9	0x3dde8a77	0.10866254
10	0x3d9e9317	0.07742899
11	0x3e28ef34	0.16497499
12	0x3e2c69cb	0.16837232
13	0xbc4434bf	-0.011975466
14	0x3d352993	0.0442291
15	0x3da8ecca	0.08248289
16	0x3cfdba45	0.03097261
17	0x3e063792	0.13107136
18	0x3b84c07c	0.0040512662
19	0xbb8d8923	-0.0043193265
20	0xbd802c44	-0.06258443
21	0x3d0b5fcd	0.03402691
22	0xbc8cc3a0	-0.017183125
23	0xbd235016	-0.039871298
24	0x3c57d393	0.013173002
25	0xbc5ba284	-0.013405446
26	0x3b97a1e6	0.004627454
27	0x3ceb3e25	0.028716156
28	0x3e17f57a	0.14839736
29	0x3d838906	0.064226195
30	0x3e1d42af	0.15357469
31	0x3d680c8c	0.05665259
32	0x3cd33ecd	0.025786782
33	0xbcd36263	-0.02580375
34	0x3b3bdaf3	0.002866444
35	0x3d8fd57c	0.07023141
36	0x3d8efa7b	0.06981369
37	0x3c9769fb	0.018483153
38	0xbdae1b03	-0.08501246
39	0xbdf5497a	-0.11976905
40	0x3e0bcb3a	0.13651744
41	0x3e34ed0b	0.1766855
42	0x3d04cf2a	0.03242413
43	0x3d3a6e5e	0.04551541
44	0xbd31181f	-0.043235894
45	0xbc7de7f2	-0.015497195
46	0x3de3f885	0.11131386
47	0x3d3d8d7d	0.046277512
48	0x3e0835cd	0.13301773
49	0xbca69383	-0.020334011
50	0x3c804997	0.01566009
51	0xbc7db799	-0.015485668
52	0x3e1b0ad5	0.15140851
53	0xb9a33a55	-0.00031133243
54	0x3e0872a3	0.1332498
55	0x3d144967	0.036202814
56	0x3db44e84	0.08804038
57	0x3dac2e7e	0.08407305
58	0x3b710fd3	0.0036783114
59	0x3cf5c443	0.030000811
60	0xbcfef73d	-0.031123752
61	0xbc9234a4	-0.017847367
62	0x3d4d0d31	0.05006141
63	0x3d57be57	0.052671757

layers.10.weight f4 [32, 64]
0	0x3dc82f9c	0.09774706
1	0x3de5a5b5	0.11213247
2	0x3e153508	0.14571011
3	0x3d2a44e7	0.041569617
4	0xbd71a072	-0.058990903
5	0x3dcf99a6	0.10136728
6	0x3de88536	0.11353533
7	0x3e091775	0.13387854
8	0xbe5823c1	-0.21107389
9	0x3c661f63	0.014045569
10	0x3daa2724	0.08308247
11	0x3dc6461c	0.09681341
12	0xbe3b8e70	-0.18316054
13	0xbdab6531	-0.0836891
14	0x3e1a1991	0.15048815
15	0xbd21c387	-0.03949311
16	0xbd00feee	-0.03149312
17	0x3d10f957	0.03539404
18	0xbc74a888	-0.014932759
19	0x3ce5cea7	0.028052641
20	0xbc00efba	-0.007869655
21	0x3ce41c31	0.027845474
22	0x3c8d9724	0.017283984
23	0xbd9a4f13	-0.075346135
24	0x3d2e764e	0.042593293
25	0xbd865452	-0.065590516
26	0x3d27e033	0.040985297
27	0xbd842d6d	-0.06453977
28	0x3d804660	0.06263423
29	0x3d18d5e1	0.037313346
30	0x3db514f8	0.0884189
31	0x3e200717	0.15627705
32	0xbcf45bea	-0.029828984
33	0x3e42081b	0.18948404
34	0x3d3cbe8c	0.046080157
35	0xbcd4b091	-0.0259631
36	0x3e04d995	0.12973626
37	0x3e3ab095	0.18231423
38	0x3d4a846b	0.04944269
39	0x3d338fd5	0.04383834
40	0x3d4f6328	0.050631672
41	0xbdfae95f	-0.12251543
42	0xbd18e26a	-0.0373253
43	0x3d8b7a95	0.0681049
44	0xbc3ede85	-0.0116497325
45	0x3dc41104	0.09573558
46	0x3dbebc54	0.093132645
47	0x3dfc025e	0.12305139
48	0xbe0b7a4e	-0.13620874
49	0x3c6c506d	0.014423472
50	0x3e108fe4	0.1411739
51	0x3df54ee0	0.11977935
52	0xbe2acccf	-0.16679691
53	0xbc931db3	-0.017958498
54	0xbddb1ad7	-0.10698479
55	0x3df13582	0.11777784
56	0x3db0bb91	0.086295255
57	0x3e0a79a3	0.13522963
58	0xbd3a8573	-0.045537423
59	0x3dd92e8b	0.106045805
60	0x3b2a339e	0.0025970708
61	0xbda9ccfc	-0.08291051
62	0x3dca8566	0.09888725
63	0x3c01e1f2	0.007927405
64	0x3cc802a6	0.024415325
65	0x3e07b7bb	0.13253681
66	0xbb344988	-0.0027509648
67	0x3d326619	0.0435544
68	0x3ce5bf35	0.028045276
69	0x3dec3d5f	0.11535143
70	0xbdadb169	-0.08481104
71	0x3da5b2e7	0.080907635
72	0xbe5aaee1	-0.21355774
73	0xbd578be6	-0.052623652
74	0x3d9d2760	0.07673526
75	0xbdb7010f	-0.08935749
76	0xbdac0bbf	-0.08400678
77	0x3ccb8a92	0.024846349
78	0xbd736fcd	-0.059432793
79	0x3d549262	0.051897414
80	0x3e338217	0.17530094
81	0x3d0e2615	0.034704287
82	0xbe18ba39	-0.14914788
83	0xbd437384	-0.047717586
84	0x3bc06055	0.0058708587
85	0xbdb9ac44	-0.0906606
86	0xbd7ac26e	-0.06122058
87	0x3aa753b6	0.0012766037
88	0x3dc1c11b	0.0946066
89	0x3e3270fe	0.17425916
90	0x3da52e22	0.0806544
91	0x3ae628d2	0.0017559773
92	0x3da08cad	0.07839332
93	0x3e3c6fe4	0.18402058
94	0xbd6ab6fa	-0.057303406
95	0x3cf9c109	0.030487554
96	0xbdab74e6	-0.08371906
97	0x3b0531ad	0.0020323799
98	0x3d92ffdb	0.07177707
99	0xbd88b80c	-0.06675729
100	0xbb9214fb	-0.0044580675
101	0x3dd0c3a0	0.101935625
102	0xbd69605b	-0.056976657
103	0xbc26ea08	-0.010187633
104	0xbd003595	-0.0313011
105	0x3d0adb5f	0.033900615
106	0x3d582b7c	0.052775845
107	0x3d6be826	0.05759444
108	0x3e22b93c	0.15890974
109	0xbc033eb4	-0.008010555
110	0xbcddd3b5	-0.027078489
111	0x3d740158	0.059571594
112	0xbcb3ad71	-0.02193329
113	0x3d4d0cad	0.050060917
114	0x3df6ef80	0.120574
115	0xbc190368	-0.009339191
116	0xbe1f6c78	-0.15568721
117	0xbd54cc15	-0.05195244
118	0xbd68194c	-0.05666475
119	0x3d6c4012	0.05767829
120	0x3deee825	0.11665372
121	0xbdbc0ff4	-0.0918273
122	0x3d7737e8	0.06035605
123	0x3daca9db	0.08430835
124	0x3c96451f	0.018343506
125	0xbd3d2b43	-0.046183836
126	0x3e146bdc	0.1449427
127	0xbcbfd943	-0.023419028
128	0xbd4f6912	-0.050637312
129	0x3df33730	0.118757606
130	0xbd38e2d6	-0.045138203
131	0xbddcd250	-0.107823014
132	0x3e204d3a	0.1565446
133	0x3cd9749c	0.026544861
134	0xbd1f8141	-0.038941626
135	0x3d413a79	0.047174904
136	0x3c2df0a5	0.010616456
137	0x3e3f8ccf	0.18706058
138	0x3d0b8564	0.034062758
139	0x3cf4e9ce	0.029896643
140	0x3d61ed30	0.05515784
141	0xbb9d8d86	-0.0048081307
142	0x3d464552	0.048405953
143	0xbe2c5603	-0.16829686
144	0xbd8c6887	-0.068558745
145	0xbd7151cf	-0.05891591
146	0x3dc80ac2	0.09767677
147	0xbe08c93c	-0.13358015
148	0xbda15434	-0.078773886
149	0x3dc0b0eb	0.094087444
150	0x3d8f1ad5	0.0698754
151	0x3c487b6c	0.012236457
152	0x3c9f0540	0.019411683
153	0x3dd7e73d	0.10542152
154	0x3cc7f76c	0.024409972
155	0xbe37f927	-0.17966138
156	0x3c570c12	0.013125436
157	0xbb1dece4	-0.0024097497
158	0x3e123d96	0.14281306
159	0xbd62c888	-0.055367023
160	0xbde1f96d	-0.11033902
161	0x3e2d4afe	0.16923138
162	0xbca7fde8	-0.020506814
163	0xbda2f100	-0.07956123
164	0x3d515bef	0.051113065
165	0x3e018e78	0.12652004
166	0x3cbb8e9a	0.022895146
167	0xbdfc5506	-0.123209044
168	0xbdaa26b8	-0.08308166
169	0x3e381917	0.17978321
170	0xbd7b677e	-0.061377995
171	0x3c8c14dc	0.01709979
172	0xbc7e5fdc	-0.015525784
173	0x3d0f9e77	0.035063233
174	0xba9b3317	-0.0011840787
175	0xba9ff513	-0.0012203775
176	0x3d4c8397	0.04993018
177	0xbd91b502	-0.071146026
178	0x3d93afe7	0.07211285
179	0xbe070aad	-0.13187666
180	0x3e1ab45e	0.15107867
181	0xbde9d8d6	-0.11418311
182	0x3dc852f9	0.09781451
183	0x3e0f4eb5	0.13994868
184	0x3d8eeca9	0.06978733
185	0x3cf29527	0.029612137
186	0xbdd9a277	-0.10626691
187	0x3e02171a	0.12704125
188	0x3e1a6d9e	0.15080878
189	0xbd443e9f	-0.047911283
190	0xbd553e84	-0.052061573
191	0x3dce37de	0.100692496
192	0xbdb42a16	-0.0879709
193	0xbd56b526	-0.05241885
194	0x3c8d9170	0.017281264
195	0xbdb64567	-0.08899956
196	0xbdf49577	-0.11942571
197	0xbd296f49	-0.041365895
198	0x3b825451	0.0039773365
199	0xbd75aa43	-0.059976827
200	0x3c849861	0.016185941
201	0xbc5b3e86	-0.013381606
202	0x3db16c9c	0.08663294
203	0x3c31dc5a	0.010855759
204	0x3d15c123	0.036561143
205	0x3c6ba8cb	0.014383505
206	0xbd866a90	-0.06563294
207	0x3db6b0be	0.0892043
208	0xbd969d98	-0.07354277
209	0x3dee74bc	0.11643359
210	0x3d1c4131	0.03814811
211	0x3d722b2c	0.059123203
212	0xbd2c5dce	-0.042081647
213	0xbe026533	-0.12733917
214	0x3ce22c91	0.027609142
215	0xbc7e3702	-0.015516045
216	0x3c34ba86	0.011030799
217	0xbe1229d1	-0.14273764
218	0x3d55e2ab	0.05221812
219	0x3d904f07	0.07046323
220	0xbd7836ec	-0.060599253
221	0x3d004a4b	0.03132085
222	0xbdaca44e	-0.08429776
223	0xbd8c1bbd	-0.06841228
224	0x3d9dd264	0.077061445
225	0xbde25f74	-0.110533625
226	0x3cf2e56d	0.029650414
227	0xbbf1787c	-0.007369099
228	0x3bdf5163	0.006815122
229	0xbd37a30e	-0.044833235
230	0xbd91d784	-0.071211845
231	0x3d936990	0.07197869
232	0x3d0d64ca	0.034519948
233	0xbd943d0f	-0.072382085
234	0x3de3bca9	0.111199684
235	0x3bb411c3	0.0054952814
236	0xbd547034	-0.051864818
237	0xbce18336	-0.027528387
238	0x3d50d35f	0.05098283
239	0x3dd170d4	0.102265984
240	0x3d178982	0.036996372
241	0x3da0775f	0.07835268
242	0xbdd8d1c8	-0.105868876
243	0x3d629c85	0.05532505
244	0x3d443cb7	0.047909465
245	0x3cf84927	0.03030832
246	0x3dc485e9	0.09595854
247	0xbe28d301	-0.16486742
248	0xbded793e	-0.11595391
249	0x3e1e47a3	0.15457015
250	0x3d8dcdec	0.06924042
251	0xbd817846	-0.063217685
252	0x3a26bafc	0.00063602603
253	0xbde34e61	-0.11098934
254	0x3caf1a84	0.021374948
255	0xbc94f447	-0.018182887

layers.10.bias f4 [32]
0	0xbcf2f857	-0.029659433
1	0x3e0fd7f6	0.14047226
2	0x3dffdb9b	0.12493058
3	0x3e0d22e6	0.13782844
4	0x3bd144fb	0.006386397
5	0x3dde14e5	0.10843829
6	0xbcd63193	-0.026146686
7	0xbdf4ba0b	-0.119495474
8	0x3dd5d200	0.10440445
9	0x3d8c616a	0.06854518
10	0x3dbf6818	0.09346026
11	0x3dc3d5c0	0.09562254
12	0x3ca06cc5	0.019583115
13	0x3e0dab7e	0.1383495
14	0x3d8c6add	0.0685632
15	0xbd736844	-0.059425607
16	0x3cd12fc5	0.025535474
17	0x3df3e094	0.11908069
18	0x3df3feaf	0.119138114
19	0x3d4c2c47	0.049846914
20	0x3ce74e6f	0.028235642
21	0xbd0b0536	-0.033940516
22	0x3de6e908	0.11274916
23	0xbd7d80af	-0.0618903
24	0x3dd15e6c	0.10223088
25	0x3cf4fcba	0.029905666
26	0x3df99592	0.121867314
27	0x3da63c02	0.08116914
28	0x3e450a89	0.192423
29	0x3a86e054	0.0010290244
30	0xbbbf1bf2	-0.0058321888
31	0x3dd403c0	0.10352278

layers.12.weight f4 [5, 32]
0	0x3e266059	0.16247691
1	0x3e151b6d	0.14561243
2	0x3e58b3cb	0.21162336
3	0xbe37d2f9	-0.17951573
4	0x3d35877f	0.044318672
5	0xbe6e7d42	-0.2328997
6	0xbc254aa7	-0.010088599
7	0x3d14fe06	0.036375068
8	0x3e1630e9	0.14667095
9	0x3e1d4393	0.15357809
10	0xbe1a3b89	-0.15061773
11	0xbe67e527	-0.22646008
12	0x3e3423c7	0.17591773
13	0x3e026c3c	0.127366
14	0xbe7acd9e	-0.24492499
15	0xbd0d4ace	-0.034495167
16	0xbdc12e67	-0.09432679
17	0x3e419f65	0.1890846
18	0x3de4e290	0.11176026
19	0x3e191264	0.14948422
20	0xbd8d342b	-0.06894716
21	0xbe4eeada	-0.20206776
22	0x3e741dbf	0.23839472
23	0xbe189049	-0.1489879
24	0xbe575340	-0.21027851
25	0x3dc8b64e	0.09800397
26	0xbc877d24	-0.016539164
27	0x3e58ca29	0.21170868
28	0xbdf7b310	-0.120947
29	0xbdc89a1b	-0.09795018
30	0xbd5c1ad9	-0.05373654
31	0xbe270649	-0.16310991
32	0xbd246f8c	-0.040145442
33	0x3e1faafa	0.15592566
34	0x3d92cc10	0.07167828
35	0xbcaa551f	-0.020792542
36	0xbe8366ae	-0.25664276
37	0x3d63d508	0.055623084
38	0xbcbd7e88	-0.023131624
39	0x3de6c06e	0.11267172
40	0x3e1511c7	0.14557563
41	0xba5adfb7	-0.0008349376
42	0x3db08a53	0.08620133
43	0xbdf03ff0	-0.11730945
44	0x3e3793f1	0.17927529
45	0x3d368ad5	0.044565994
46	0xbd016e14	-0.03159912
47	0x3d3e3d37	0.046445098
48	0xbe15998e	-0.14609358
49	0xbd92cfa8	-0.071685135
50	0x3dee6ee4	0.116422445
51	0xbe4b21fb	-0.19837181
52	0xbdb98087	-0.09057718
53	0xbd8d2d33	-0.06893387
54	0x3d219359	0.039447162
55	0xbde60b12	-0.1123258
56	0xbc5b2fae	-0.013378067
57	0xbd6d1f1c	-0.057890996
58	0x3dac95d8	0.08427018
59	0xbe82b045	-0.25525108
60	0xbe519f44	-0.20470911
61	0x3e754cda	0.23955098
62	0x3e74a409	0.238907
63	0x3e3e9784	0.18612486
64	0x3e2ac788	0.16677678
65	0x3e0579e4	0.13034779
66	0xbd729879	-0.05922744
67	0xbd776095	-0.060394842
68	0xbdc86334	-0.097845465
69	0x3cb5b744	0.022182114
70	0x3e215854	0.15756351
71	0x3dece034	0.11566201
72	0xbe3be5ee	-0.1834943
73	0xbe436817	-0.19082676
74	0x3ddf43cb	0.10901602
75	0x3e4bd652	0.19905975
76	0xbd934923	-0.07191684
77	0x3e1c062b	0.15236728
78	0xbe4cef4e	-0.20013162
79	0xbe8bfd3c	-0.2734164
80	0x3d69e8bb	0.057106715
81	0x3db9a131	0.09063948
82	0xbe241172	-0.1602228
83	0xbb09efe5	-0.002104753
84	0x3e38dfc3	0.18054108
85	0xbdacca16	-0.08436982
86	0xbdfc46db	-0.12318202
87	0xbd976ee7	-0.073942
88	0x3bf18e79	0.0073717204
89	0xbe46ecd0	-0.19426274
90	0xbe4f0caa	-0.20219675
91	0xbd852d8f	-0.0650283
92	0xbd9ea751	-0.07746757
93	0xbe1f0a2e	-0.15531227
94	0x3df18ecd	0.11794815
95	0x3e82350b	0.25431094
96	0xbdf92dec	-0.12166962
97	0xbd9841ab	-0.074344
98	0x3dfc328e	0.1231433
99	0xbd3754ab	-0.04475848
100	0x3e3128a4	0.1730066
101	0x3ddefe76	0.10888378
102	0x3e575749	0.2102939
103	0x3e11a744	0.14223963
104	0xbe771af4	-0.24131376
105	0xbd83f557	-0.06443279
106	0x3d5a4dc3	0.053296816
107	0xbd4000c8	-0.046875745
108	0xbe36ee49	-0.17864336
109	0x3ba83c13	0.0051341145
110	0x3d1cd9e9	0.038293753
111	0xbe40f424	-0.18843132
112	0xbe48c4bc	-0.19606298
113	0xbe5b0f3c	-0.2139253
114	0x3d1078c8	0.035271436
115	0x3e2b6dc7	0.16741095
116	0xbd48a639	-0.048986647
117	0xbdb53b09	-0.08849151
118	0xbe463da2	-0.19359449
119	0xbe1d2787	-0.1534711
120	0x3c20c0e6	0.009811616
121	0xbd486a15	-0.048929293
122	0x3d2bd9cd	0.041955758
123	0x3d9bb552	0.076029435
124	0x3db77c51	0.08959258
125	0x3cd9c7ff	0.026584623
126	0xbdcf382a	-0.10118134
127	0xbdb3c9ac	-0.087787
128	0xbdf61525	-0.12015752
129	0xbd7af6e0	-0.061270595
130	0xba93c970	-0.0011275243
131	0x3e0e471d	0.13894315
132	0x3dffab6d	0.12483869
133	0x3e131d1e	0.14366576
134	0xbd09747c	-0.033558354
135	0x3db6f706	0.08933835
136	0xbe07c735	-0.13259585
137	0x3e13731f	0.14399384
138	0xbbcb1bc2	-0.0061983773
139	0x3cb02eab	0.021506628
140	0xbe1b5719	-0.15169944
141	0xbe51784b	-0.20456044
142	0x3e077692	0.13228825
143	0x3e47f82c	0.19528264
144	0x3d3e976d	0.04653113
145	0x3dd6f9df	0.10496878
146	0xbde3de86	-0.11126427
147	0xbe2eae14	-0.17058593
148	0xbe398ee0	-0.18120909
149	0x3e327f97	0.17431484
150	0x3bca50f1	0.0061741997
151	0x3e3d887a	0.18509093
152	0xbe2f6bb0	-0.17130923
153	0xbc74ad8d	-0.014933956
154	0xbc8a6c57	-0.016897364
155	0x3e1d170f	0.15340827
156	0x3e17554c	0.14778632
157	0xb9c7f51f	-0.00038138867
158	0xbc492b96	-0.012278458
159	0xbe427499	-0.18989791

layers.12.bias f4 [5]
0	0xbe3f4941	-0.18680288
1	0x3d18b36f	0.037280496
2	0xbdf755ef	-0.120769374
3	0x3e27bf71	0.16381623
4	0xbd301376	-0.04298731
