app/profiler/bests/r.ckpt (torch, 71539 bytes, 24 tensors)

layers.0.weight f4 [32, 97]
000000 c8 f8 03 3e eb d0 6e 3e 69 98 51 be c6 64 12 be
       0.12887871 0.23321883 -0.20468296 -0.14296255
000010 5a 2c 40 3d b7 7a 27 3d 48 5f 30 3e 4f 87 53 3d
       0.046917297 0.040888514 0.17223847 0.051642712
000020 77 9e a0 3c f8 a3 85 bd 10 a2 a1 bd 40 63 7a 3d
       0.019606812 -0.06525415 -0.07892239 0.06112981
000030 01 30 ec 3d 87 94 af 3d fd 8b 33 bd 42 0a 1a 3d
       0.115325935 0.08573251 -0.043834675 0.03760744
000040 81 ed 99 3d 69 5d de 3d cd 02 be 3d 95 89 12 be
       0.075160034 0.1085766 0.09277878 -0.14310296
000050 4d 92 de bc 61 da 50 3d a4 28 1f 3e ed 8e 4f 3e
       -0.027169371 0.050989512 0.15542847 0.20269366
000060 00 15 0e 3e 8f 74 fe 3d 78 96 aa 3c 55 c0 93 bd
       0.13875198 0.124245755 0.020823702 -0.07214419
000070 58 ce 02 3e 0d b1 17 bc 61 37 b9 bc 39 10 b1 3d
       0.12774026 -0.009258521 -0.022609415 0.08645672
000080 30 0a 50 3e e2 44 54 bd 7a 20 d7 3c 65 58 09 bd
       0.20316386 -0.051823504 0.026260603 -0.033531565
000090 b7 5e 8e 3d 52 9e 1b 3d 67 01 bd 3d 11 b4 fe bc
       0.06951659 0.037992783 0.09228783 -0.031091722
0000a0 76 d0 6e 3e 99 9a 36 3e 59 1a eb bd 92 01 00 bd
       0.23321709 0.17832412 -0.11479635 -0.031251498
0000b0 9d f6 cb 3c 94 85 b9 3d 31 c0 41 bd 36 1c 67 bd
       0.024897868 0.09058681 -0.04730243 -0.05642339
0000c0 d8 4a 66 3e c7 84 4c bd f3 34 0c be cc 35 56 be
       0.22489488 -0.049931314 -0.13692074 -0.2091896
0000d0 79 69 5c 3d 65 14 4d bb f9 c4 3f 3e 27 03 ee 3d
       0.053811524 -0.0031292674 0.18727483 0.11621695
0000e0 bc bf 56 bd 42 dd 3a be 48 00 8e ba ef 84 b5 3d
       -0.052428946 -0.18248466 -0.0010833824 0.08863246
0000f0 dd 58 b1 3d 77 99 38 3e 82 1f 9f 3d dc d1 10 be
       0.086595275 0.18027292 0.077696815 -0.14142555
000100 5e 97 47 3d 26 46 3e 3d 61 9f 8d bd 5a 24 2d 3e
       0.04872834 0.046453618 -0.06915165 0.16908398
000110 6d 54 12 3d d9 f8 aa 3b bc 22 f0 3d 86 cd 1a 3c
       0.035725046 0.0052176532 0.11725375 0.009448415
000120 c0 7a d6 3d 44 59 b2 3d 0f 35 31 3d d5 d4 87 3e
       0.104726315 0.08708432 0.04326349 0.26529565
000130 b2 b9 ab bd 22 08 9e bc 43 ad 09 3e 6b 7a f8 bc
       -0.08385028 -0.019290987 0.13445 -0.030331811
000140 c4 9a f2 bb fb 66 b2 3d fd 4a 7e bd a3 86 fc 3c
       -0.0074037034 0.08711048 -0.062083233 0.030825919
000150 05 3b ae 3d ae ed 0f 3c 5b 5b c4 bd 96 75 d1 bd
       0.08507351 0.008784695 -0.09587737 -0.10227506
000160 5c 82 16 bd 26 1d 74 3e 56 95 5f 3e 3e f2 1c 3d
       -0.036745414 0.23839244 0.21834311 0.038316958
000170 26 12 1e 3e cd c4 06 3e 45 e5 97 3d 0d c8 61 3d
       0.1543661 0.13161011 0.074167766 0.055122424
000180 92 02 3f bc 55 4d e9 3b 18 1a 22 be 2d c3 1f 3f
       -0.011658328 0.0071198144 -0.15830266 0.6240719
000190 55 5f 08 3e 29 82 cc be f5 06 c0 bd 1c 2a e1 bc
       0.13317616 -0.39943054 -0.09376327 -0.0274859
0001a0 ea 94 5f bb cb 63 4c 3d dc 08 b5 3b ed 39 6f 3d
       -0.003411586 0.049899857 0.0055247378 0.05840485
0001b0 22 00 07 3e d4 31 54 3c 41 0e db bd 84 03 54 3c
       0.13183644 0.012951333 -0.10696078 0.012940291
0001c0 23 7f 27 bc ca 3c 45 3b 5f 0e a9 bc 77 0c d7 3c
       -0.010223183 0.0030096048 -0.020636735 0.02625106
0001d0 71 2a 02 3e 09 4f 66 bd 07 b5 11 be 5c 80 9c 3c
       0.12711503 -0.056227718 -0.14229213 0.019104175
0001e0 d1 60 7c be 27 1d 8c be f8 1e df bc 85 25 89 be
       -0.24646308 -0.2736599 -0.027236447 -0.26786438
0001f0 9e b8 50 bd ab ed 8b be aa 59 f6 bd a8 5f 41 be
       -0.050957315 -0.27329764 -0.12028821 -0.18884146
000200 13 1b 55 be 33 2e 2a be 54 47 3b be 0f 0d 67 bd
       -0.20811109 -0.16619186 -0.18288928 -0.056408938
000210 21 91 0f be eb 3e 0f be 49 d4 34 3d 9a 1b 4f be
       -0.14020206 -0.13988845 0.044147763 -0.20225373
000220 2b 6b a4 bc f0 68 8f be 54 87 7e 3b 3c 3f 98 bc
       -0.020070633 -0.28009748 0.0038837986 -0.01858484
000230 c2 9a 68 be 0c 90 14 be 9d 9d 1b be ae 4d ac bc
       -0.22715285 -0.14508075 -0.15196843 -0.021033134
000240 e2 2a 71 be a4 52 eb bd 93 7f 88 bd 42 97 30 be
       -0.23551515 -0.11490372 -0.06664958 -0.172452
000250 89 a7 a2 be 57 b6 2b be 24 fb 6f be 1f 93 bf be
       -0.31768444 -0.16768776 -0.23435646 -0.37416932
000260 66 09 f3 bd f3 7c 28 3d 68 2c 14 be 6b 4d 93 be
       -0.11867027 0.041134786 -0.14470065 -0.28770003
000270 e4 d8 89 3d 7b 47 0e bd 76 b3 c3 bd a0 01 75 be
       0.06730822 -0.034736138 -0.09555714 -0.23926401
000280 b8 4a 7b 3e a3 c6 41 be 32 83 2f bd 8a ba eb 3d
       0.24540222 -0.1892343 -0.042849727 0.11510189
000290 36 90 ec 3a 0e 43 1c be 8c 1c 5b 3d e7 a7 43 be
       0.0018048349 -0.15259954 0.05349402 -0.19107018
0002a0 6a c4 51 be 9d a7 f7 bd 3e 76 22 be 8e 9a 30 3e
       -0.20485082 -0.120925166 -0.15865418 0.17246458
0002b0 ca bd 63 bc f5 7f 0e 3e e4 9d db bd f8 a8 5c bd
       -0.01390023 0.13915999 -0.107234746 -0.05387208
0002c0 05 56 31 be 03 60 b3 3c 68 ac 89 be 09 12 34 bd
       -0.1731797 0.021896368 -0.26889348 -0.043962512
0002d0 91 34 0c be e3 64 7b 3d 37 f0 75 be bb 06 d0 be
       -0.13691927 0.06137551 -0.24017416 -0.40630135
0002e0 31 7f 89 be fd bd c7 bd a1 12 22 be 32 64 d3 be
       -0.26854852 -0.09753034 -0.15827419 -0.4128738
0002f0 1e 25 21 be 46 76 66 3c 3b a0 1e be 81 7f 3a be
       -0.15736815 0.0140662845 -0.1549081 -0.18212701
000300 d9 f7 5b 3c ae b5 e3 bc 67 59 42 b9 a9 12 de bc
       0.013425791 -0.027796593 -0.00018534587 -0.027108507
000310 f0 5c 05 3f 5e 50 11 3e 99 43 13 be 8d 59 8d bd
       0.52094936 0.14190814 -0.14381255 -0.06901846
000320 d1 a4 57 be c6 f7 fb 3b 15 de 92 3d e8 0a 85 3c
       -0.21058966 0.007689449 0.07171265 0.016240552
000330 94 41 20 3d 8c 6f 85 3d 70 19 e2 bc 0d 68 c2 bd
       0.03912504 0.065154165 -0.02760002 -0.09492502
000340 2e 3c 8d 3d a6 bb 86 bd 1f c8 d5 bd b4 e8 fc 3c
       0.06896244 -0.0657876 -0.10438561 0.03087268
000350 41 83 a6 bc e6 80 4d 3e 02 3a 10 bd da b7 20 bd
       -0.020326259 0.20068702 -0.03521157 -0.039237835
000360 14 48 78 bd b2 f9 13 be 3a ab 41 be d4 ae ac 3c
       -0.060615614 -0.1445072 -0.18912974 0.021079458
000370 9b 0d 86 bd 6a 22 c7 bd 99 cf 31 bc fe a4 2d bd
       -0.06545564 -0.09723361 -0.010852718 -0.042393677
000380 97 e8 d2 bc f7 92 55 be 18 48 2d be b7 45 24 3d
       -0.025745673 -0.20856844 -0.16922033 0.040105548
000390 69 8f 71 bd bb 67 83 bd 53 fd 53 bd be e7 60 be
       -0.058974657 -0.064162694 -0.05175526 -0.21963403
0003a0 60 ec 34 3c aa b2 15 3d a4 aa 09 be bb 71 1d be
       0.011042684 0.03654734 -0.13444 -0.15375416
0003b0 8a 42 90 3d 03 35 d0 3c 2d b4 c7 bd a2 84 94 bd
       0.07043941 0.025415903 -0.09751163 -0.0725186
0003c0 e6 8e f7 bc 46 d0 9a 38 3a 9b ec bd 01 3e d2 3b
       -0.030219506 7.382086e-05 -0.115530446 0.006416083
0003d0 f1 05 d9 bb 09 4e 66 3e 89 d0 e6 bd 1f 81 bd bd
       -0.0066230227 0.22490706 -0.11270244 -0.092531435
0003e0 5c 2f 89 be a2 dc fa bc c8 3d a3 3d a0 6e f0 3d
       -0.26793945 -0.030622784 0.07970768 0.1173985
0003f0 13 64 e9 bd 8d 20 4a bd 3a ab be bd 2f e2 f4 bc
       -0.11396041 -0.04934745 -0.093100026 -0.029893009

layers.0.bias f4 [32]
000000 11 43 86 bd 29 c4 d5 3d 93 fa 34 3d d7 c7 34 bc
       -0.06555761 0.10437805 0.04418428 -0.011033974
000010 49 72 49 bd b2 b3 ea bd 33 c7 ac bc 80 4b 26 3e
       -0.049181256 -0.114600554 -0.02109108 0.16239738
000020 94 ec 3f bd 6b e8 19 3d 02 b6 03 3d f1 9e 6d 3d
       -0.046856478 0.037575167 0.032155998 0.058012906
000030 b2 75 8f 3c 1e 2a 05 3e 47 a0 66 3d 98 de 31 3d
       0.017512176 0.13004348 0.056305196 0.043425173
000040 7b 75 93 bc 9c bb 20 3e 4b c2 fc 3c 8a 51 f4 3c
       -0.018000355 0.15696567 0.030854365 0.029824037
000050 74 c6 6e 3d 4c 7e 23 bd ad 00 ad 3d 4f 14 3b 3e
       0.05829473 -0.039915368 0.084473945 0.18269466
000060 17 0c d6 3c 9c 7d de 3d d0 54 61 bd 90 3d f0 3d
       0.026128812 0.10863802 -0.055012524 0.11730492
000070 57 43 81 3c 6e 7e 3b 3d e8 bb d3 3d 77 45 c3 3c
       0.01577918 0.04577487 0.10338575 0.023836834

layers.2.weight f4 [32, 32]
000000 b8 78 67 bd 6c 09 9c 3e 34 62 ed 3b cf 58 68 bd
       -0.05651161 0.30475938 0.0072443727 -0.05672532
000010 dd 35 88 3b e4 89 34 bd 37 5d 6d bd a1 1b cc bd
       0.0041568116 -0.044076815 -0.057950225 -0.09966207
000020 a9 e7 28 be 15 7a d1 bd 26 0b 08 bd 06 82 b2 be
       -0.16494621 -0.102283634 -0.033213757 -0.34864825
000030 f5 2f 66 3e ee 36 31 3e fe ea ea 3d b3 2d b2 3d
       0.22479232 0.1730611 0.114706025 0.08700123
000040 38 84 84 be d5 ca 0c be ee 0e f4 bd ad b2 05 bb
       -0.25882125 -0.1374925 -0.1191691 -0.0020400689
000050 3e bf c9 bd 28 2d 4e 3e bf d7 f5 bd 17 2f 11 3e
       -0.0985093 0.20134413 -0.12004041 0.1417812
000060 ef db b0 3d 85 cc 2e 3e 26 5a 6f 3d a0 94 21 be
       0.08635699 0.17070206 0.05843558 -0.15779352
000070 cf 55 60 3e ae d5 74 bd 5d c6 c4 bd cf 51 1c 3e
       0.21907733 -0.059774093 -0.09608147 0.15265583
000080 f0 92 ac bd 5f 5e 64 bd 27 09 86 bd c1 75 6b 3c
       -0.084264636 -0.05575406 -0.065447144 0.014371336
000090 6c 79 a6 3d 8c e5 c5 bd b9 8c fc 3d 78 fc 75 be
       0.08128628 -0.09662923 0.12331528 -0.2402209
0000a0 8d 02 81 b9 cc 3d 71 3d c9 14 3e 3d a5 d7 33 3e
       -0.00024606698 0.058896825 0.04640654 0.1756273
0000b0 c7 17 ad 3e 21 62 a1 3a b1 70 cd 3d 07 be 95 be
       0.33807203 0.001231257 0.1003126 -0.29246542
0000c0 be ae 23 bd 28 2e 0e be 67 65 04 3d 80 7a 16 3d
       -0.03996157 -0.13884795 0.032323267 0.03673792
0000d0 38 c2 7b bd 24 e7 32 3d 2e ae 1b be 3a 81 5f be
       -0.06146452 0.043677464 -0.15203163 -0.2182664
0000e0 12 59 7e 3e d3 c0 c6 bd 80 a0 b1 3e 3b 8a 1a 3e
       0.24838665 -0.09704747 0.34692764 0.15091793
0000f0 d0 37 0b be 4d bb ee 3d 98 79 1e be b5 f3 fc 3d
       -0.1359551 0.116568185 -0.15476072 0.12351171
000100 d1 f3 d7 bb a6 f4 49 3d 86 6a b8 3d 01 03 dc 3d
       -0.0065903445 0.04930558 0.09004693 0.107427604
000110 b6 f5 45 3e 18 f1 a3 bd 30 d0 1e 3e 5c 4e 0f bd
       0.19332013 -0.08004969 0.15509105 -0.03498684
000120 e1 d9 1a 3c 6b 35 1e 3e 60 aa e5 bd 2e 44 46 3e
       0.00945136 0.15450065 -0.11214137 0.19361946
000130 19 b4 87 3d b3 da cf be cd 03 99 bd 3e 21 98 be
       0.06626148 -0.40596542 -0.07471428 -0.29712862
000140 9b e0 12 bd 89 ed 18 bd 7f 67 f9 3c e9 9c 03 3e
       -0.03585873 -0.037335906 0.030444859 0.12852825
000150 60 5d 25 be 42 5a 11 3e 45 1b 22 bd 0d c2 31 be
       -0.16148901 0.14194587 -0.039576788 -0.17359181
000160 5c 57 3b 3e af 29 67 be e3 f9 ab 3e d2 84 f9 3d
       0.18295044 -0.22574495 0.33589086 0.121835366
000170 9a 57 1c be 19 ac 64 3e 93 77 c5 be 33 76 15 bd
       -0.15267792 0.22331275 -0.3856779 -0.036489677
000180 cc 7e 6f bc 03 91 42 3e af a3 1e 3e ec 73 2b be
       -0.014617633 0.1900063 0.15492128 -0.1674344
000190 6d 50 1a be a6 39 bf 3d a0 68 d9 bd 16 50 8c bd
       -0.15069743 0.093371674 -0.10615659 -0.06851213
0001a0 80 25 6c 3d 47 bb d2 bd b1 1e 40 bc 18 3e 60 3c
       0.05765295 -0.102896266 -0.011726067 0.013686679
0001b0 a0 d8 0c 3d d8 b8 8a 3c cc 82 2b 3e 2b 81 80 be
       0.034386277 0.016933843 0.16749114 -0.25098547
0001c0 f2 ee b6 3d 7e df 67 be eb 03 9d bd f4 ce 14 be
       0.08932294 -0.22643849 -0.07666763 -0.14532071
0001d0 10 99 18 be 17 62 b6 3d 7e 89 93 3c 79 a2 0c 3d
       -0.14902139 0.08905428 0.018009897 0.034334633
0001e0 61 3b d4 3d 3b 84 aa bd c8 4b d2 3d 73 b6 dd bd
       0.10362888 -0.08326002 0.102683604 -0.10825815
0001f0 35 2e d6 3c 1e 3c 59 38 fb ec 28 bc 69 53 8a 3e
       0.02614508 5.179282e-05 -0.010310407 0.27016762
000200 25 49 0b 3d 4b d7 1a 3e 2d c3 8c bd 8e f9 5e 3e
       0.034005303 0.1512119 -0.06873164 0.21774885
000210 c8 9e 07 bd 47 f6 2b be 28 7e 5a 3c 12 a8 2d be
       -0.03311041 -0.16793166 0.013335742 -0.16958645
000220 27 bd eb bd 85 3d 44 3d e1 16 5f be 2c eb de 3d
       -0.11510687 0.047910232 -0.21786071 0.10884699
000230 2c 1b 2c 3e 03 fb ce bd 0b a4 ea 3d 98 6c b7 be
       0.1680724 -0.101064704 0.1145707 -0.35825038
000240 ba 5a 2d be b5 47 ee bd 53 c9 94 be 86 00 03 3e
       -0.1692914 -0.11634771 -0.29059848 0.12793168
000250 f9 85 07 bd fd 33 ad 3e 19 bf ad be f1 bf c3 bd
       -0.03308675 0.33828726 -0.33934858 -0.09558094
000260 29 67 8a 3e dc 8b 4f bc 31 d1 a2 3e 0f 25 28 be
       0.2703183 -0.012667622 0.31800225 -0.16420387
000270 94 94 6a 3d 25 aa 17 3e 24 cd f0 bd cd d4 08 3e
       0.0572706 0.14810999 -0.117578775 0.13362427
000280 67 d7 ee 3d 63 ed 5a bc 5a 30 10 be e5 10 9a 3b
       0.116621785 -0.0133622615 -0.14080945 0.004701721
000290 de 05 46 3e 62 e0 af bd a6 1f b9 3d 33 ba d6 3b
       0.19338176 -0.085877195 0.090392396 0.0065529584
0002a0 db 40 a0 3e 1a 06 0e 3d 6e 1c 4a 3e 81 5c c8 3d
       0.3129948 0.034673788 0.19737408 0.09783269
0002b0 d0 a3 79 3d 38 23 09 3e ed be 9c bd eb 8c 13 3d
       0.06094724 0.13392341 -0.07653604 0.03602306
0002c0 86 5a e9 3d 79 e3 8f bd 25 27 82 3e a2 27 ab 3d
       0.11394219 -0.07025809 0.2542049 0.08357169
0002d0 0e b9 f8 bc 51 19 1a be 04 13 4a 3e 5e 94 24 be
       -0.030361678 -0.1504872 0.19733816 -0.16072223
0002e0 f9 f4 c2 bc 4c 3b a5 3e 99 65 85 be 33 84 40 bd
       -0.023798453 0.32271802 -0.26054075 -0.047001075
0002f0 8c 47 d0 bd 9c b4 8e be c9 c6 b6 3d b8 8e 6f bd
       -0.101698965 -0.2787217 0.08924634 -0.058485717
000300 c4 8f c5 bd c5 7b b2 3e 4f 47 74 3e 37 b7 08 bd
       -0.09646562 0.34860054 0.23855327 -0.033377852
000310 14 ef 6e be 72 e6 21 bd 65 32 2c be a7 8f de 3c
       -0.23333389 -0.03952641 -0.16816099 0.027168108
000320 e0 1f 1a be f7 e5 df bc 6e f3 bf 3d 4b cf 32 be
       -0.15051222 -0.027331335 0.093726024 -0.17461888
000330 70 a6 39 3e 2e fc a2 3d 7d d1 50 3e f0 e4 f5 bd
       0.18129897 0.07958256 0.20392413 -0.12006557
000340 c8 c3 8a be 55 65 95 3e 4d 29 1c be 53 62 85 be
       -0.27102494 0.29178873 -0.1525013 -0.26051578
000350 17 e0 39 3d 94 c8 95 bd 8a e6 64 be 61 78 14 3e
       0.045379724 -0.07313648 -0.22353569 0.14499046
000360 6e 29 02 be cd 30 87 bd 52 c6 af 3d 04 e1 37 bd
       -0.12711117 -0.06601105 0.085827485 -0.044892326
000370 20 8c cd 3e fe 74 f5 bd ce dc 7f 3c c7 82 01 be
       0.4014597 -0.11985205 0.015616609 -0.12647544
000380 13 93 ad 3b 94 57 42 3e 2b 9e 8c 3d 3b e2 ab bc
       0.0052970736 0.18978721 0.06866106 -0.020981899
000390 d8 86 00 be 0e 4f b2 3d 6d 30 fb 3d 92 90 2b be
       -0.12551439 0.08706485 0.12265096 -0.16754368
0003a0 c4 f8 4a bc 57 2a e3 bd 50 06 ed 3d 6e 58 ac 3d
       -0.012388412 -0.1109206 0.1157347 0.08415304
0003b0 2a c2 7d bd 19 21 52 3e 7c 90 07 be 6b 83 d7 bb
       -0.061952747 0.20520438 -0.1323871 -0.0065769455
0003c0 41 77 cf 3d cf 59 3e 3e 62 25 9c 3d f8 d0 0f 3e
       0.10130168 0.18588947 0.07624318 0.14044559
0003d0 59 24 ff 3c 26 ad 02 bd 28 62 7a bd df ec b0 bb
       0.031145262 -0.03190341 -0.061128765 -0.005399331
0003e0 b6 85 62 3d f8 1a 76 bd 2a 1c 17 bd 11 7e 9e bc
       0.055303298 -0.060084313 -0.036892094 -0.019347223
0003f0 20 19 f8 bd b5 86 7b bd 67 0b ab bb e1 8b 11 be
       -0.12114167 -0.061407764 -0.005219865 -0.14213516

layers.2.bias f4 [32]
000000 f8 81 8a bd 26 ed 51 3d 43 ff cf 3d 89 c9 12 bd
       -0.06763071 0.051251553 0.10156109 -0.03583673
000010 a6 87 53 3d 4e 05 41 3c be 26 c2 bd 20 b1 22 be
       0.051643036 0.01178105 -0.09480046 -0.1588788
000020 23 4e 4a bd 22 42 ca 3d dc ef 9c 3b 3e 16 93 bd
       -0.049390923 0.09875895 0.0047893357 -0.07181977
000030 2d 5a 64 bb bf 4d f0 3d 0e f7 0a 3e 56 f6 8d bd
       -0.0034843788 0.11733579 0.13570806 -0.069317505
000040 b3 a8 94 3d 8a b8 8a bd 56 0d f4 bd a6 b3 8f 3d
       0.07258739 -0.06773479 -0.11916606 0.07016687
000050 37 63 23 be fe 83 14 3d 7e 2e e1 3d 4d c8 19 be
       -0.15955816 0.03625869 0.10995196 -0.15017815
000060 25 dc d7 3d 41 fe 10 be 7b 33 98 bb a1 f9 5c bc
       0.10540036 -0.1415949 -0.004644809 -0.013487251
000070 9f 31 66 3d 56 6c cd bd 23 02 ed 3d 62 be 2d bd
       0.056199666 -0.10030429 0.11572673 -0.04241789

layers.5.weight f4 [16, 32]
000000 e1 91 1d be 15 85 56 3e 58 89 5f 3e 4d 26 9f be
       -0.1538768 0.20949204 0.21829736 -0.3108391
000010 e8 48 93 3c af bb 83 bd a8 76 ae be de f8 8c 3d
       0.0179791 -0.06432282 -0.34074903 0.06883405
000020 6b 92 dd bd 63 03 c0 3d 1d 60 9e be 4d c9 07 be
       -0.10818943 0.09375646 -0.30932704 -0.13260384
000030 88 5c 25 3e 2e f4 97 be f9 8a 80 3e 86 06 17 3d
       0.16148579 -0.29678482 0.25106028 0.036871456
000040 e6 19 c1 3b 5c b5 a0 3e e5 8e 0d 3e 86 84 41 3e
       0.00589298 0.31388366 0.13824041 0.1889821
000050 20 74 e0 be cc 7b b3 be d6 bd cc be a7 a9 a4 bd
       -0.43838596 -0.35055387 -0.39988583 -0.08040171
000060 bf 0f 1e 3e d0 8e be 3d f3 44 a1 be 7c a9 58 3d
       0.15435694 0.09304583 -0.31497917 0.052896008
000070 bf ab 6c 3d d5 a8 30 3e 0d 4c 1d 3d 26 e9 0b 3e
       0.057780977 0.17251904 0.038402606 0.13663158
000080 85 a1 f4 3e 23 83 b0 bc a1 de 9e 3c 04 31 86 3d
       0.4777948 -0.021546906 0.019393267 0.06552318
000090 a5 06 bb 3d cd 46 94 be 89 62 6e 3e b2 6a cf 3c
       0.09132127 -0.28960267 0.23279776 0.025319431
0000a0 a5 b9 2c 3c dd 1f b0 3d ca 16 5c 3e 02 0d e2 bd
       0.010542308 0.085998274 0.21493068 -0.11037637
0000b0 0b 35 45 3e 98 dc a7 3d d9 40 a6 3d d9 19 67 be
       0.19258516 0.08196372 0.081178375 -0.22568454
0000c0 25 b3 cc bc cb 07 96 3d 98 b8 aa bd 2a 3d c7 3c
       -0.024987767 0.07325705 -0.0833599 0.024321157
0000d0 ff 37 4e 3e 02 26 08 3e 53 ed 1e 39 90 a3 ce be
       0.20138548 0.13295749 0.00015156464 -0.40359163
0000e0 29 5b b9 bd 38 c8 9e 3e 7d f4 96 3e 51 38 70 3d
       -0.090505905 0.3101213 0.29483405 0.058647458
0000f0 72 1d af bd a9 3b cc bd bc a6 48 3e 6e 5d 15 be
       -0.08550538 -0.09972317 0.19594854 -0.14586422
000100 5e 36 01 bf 74 ca d8 3d 02 92 d8 3d 0f 71 35 be
       -0.5047358 0.1058549 0.10574724 -0.1771891
000110 74 1a 7c be 8e 25 87 3e 52 d0 03 bf 7e 1f 1e 3e
       -0.24619466 0.2639584 -0.51489747 0.15441701
000120 ac de f3 3d c3 ef 21 3e 4a 13 f9 bc a6 9f 90 3d
       0.11907706 0.15814118 -0.030404706 0.070617005
000130 81 e9 15 bd 25 88 fa 3c b4 3a 26 3e e9 03 83 3e
       -0.03659964 0.030582497 0.16233331 0.2558892
000140 24 82 b0 3e e6 9d ba be ad c4 26 3e d7 04 26 be
       0.3447429 -0.36448592 0.16285963 -0.16212784
000150 45 f4 25 3d 33 66 28 3e 12 2f e1 b9 1a 90 9a 3e
       0.040516157 0.16445236 -0.00042950414 0.30188066
000160 88 0a 02 3e a0 69 bd be ff aa 20 bf ed c4 8a 3d
       0.1269933 -0.36994648 -0.6276092 0.06775842
000170 49 f3 5f 3e 5d 02 53 3e cc 38 33 3e 9d a9 a1 3e
       0.2187015 0.2060637 0.17502135 0.31574717
000180 66 c0 a8 3e 4a 43 1b 3c 8e 78 ff 3d 32 50 8e 3e
       0.32959288 0.009476492 0.12474166 0.2779556
000190 c2 09 9e 3c 83 18 62 bd 80 c5 a8 3d ab bf 58 bd
       0.019291762 -0.055199157 0.08240795 -0.052917164
0001a0 a5 d9 78 bd 84 8b 65 3d f6 40 7a 3d 9f d8 62 3d
       -0.060754437 0.056041256 0.061097108 0.055382367
0001b0 3e 92 85 bd f4 f6 41 3e 0c f2 18 3e 50 fa 4a be
       -0.06522034 0.18941861 0.14936084 -0.19822049
0001c0 2f f9 84 bd 5c af 19 3e c2 72 40 be 46 da a7 bd
       -0.064928405 0.150083 -0.18793777 -0.08195929
0001d0 63 49 81 bc 94 8d 78 3e 03 91 62 3d 69 98 e2 bd
       -0.015782064 0.24272758 0.055314075 -0.11064226
0001e0 df 74 e0 3d 75 f6 46 3e 6a 65 82 3e 23 00 0e 3c
       0.109597914 0.19429953 0.25467998 0.008667025
0001f0 84 c1 d9 3d 35 1a 0b be f3 cc 48 3e 6d fb e2 bd
       0.10632613 -0.13584216 0.19609432 -0.11083112
000200 aa b0 f7 3d 82 75 b7 be 9f 49 2e be ea 9b ff bd
       0.12094243 -0.3583184 -0.17020272 -0.1248091
000210 0a 86 d6 bd 6f 80 82 bd b7 7d 48 3d 00 3f af 3d
       -0.10474785 -0.06372153 0.048948016 0.08556938
000220 a4 c8 8b bd 86 37 5f be c3 43 10 3e a9 09 10 3e
       -0.068253785 -0.21798524 0.14088349 0.14066185
000230 27 4a f2 bd 25 da e1 3d 37 69 a3 be 2a 32 89 be
       -0.1183055 0.11027936 -0.3191621 -0.26796085
000240 35 db bc bc db 6f 15 be 35 58 9c bd 2d 77 28 3e
       -0.023053745 -0.1459345 -0.07634012 0.16451712
000250 c3 8e 60 3b c9 30 07 bd cd 62 3f 3d 5d fd a1 bd
       0.003426478 -0.03300551 0.046725083 -0.07909653
000260 c5 87 96 bc cd de ba bd 7a 7a 46 3e d5 10 bb be
       -0.018375287 -0.09124527 0.19382659 -0.3653628
000270 7f df 13 ba 32 bc bb 3d 05 cf 3d bd d6 9b 09 3e
       -0.00056409085 0.09166755 -0.046340007 0.13438353
000280 d8 b9 bb 3a d3 09 0b be 9a f0 fb bd a7 db 7d 3c
       0.0014322354 -0.13577966 -0.123017505 0.015494264
000290 58 33 a5 3d 55 b7 2f 3e 67 a2 02 be 9d c0 8f bd
       0.08066434 0.1715978 -0.12757264 -0.0701916
0002a0 b8 70 cf bb 16 d0 6b 3e 5a 27 54 be 3f 27 2d bd
       -0.006330576 0.23028597 -0.20718136 -0.042273756
0002b0 7a 84 63 3e b4 37 55 be 94 91 0a be fa a8 5e bd
       0.22218505 -0.2082203 -0.13532096 -0.054360367
0002c0 90 b0 77 3e 53 83 74 3d dd 99 b7 bc f9 1b 44 bd
       0.24188447 0.059695553 -0.022412235 -0.04787824
0002d0 c2 0f 3b be 4a 50 2f 3d 31 80 3b be a8 41 4a bd
       -0.1826773 0.04280118 -0.1831062 -0.04937902
0002e0 fe a3 0f 3e 68 3d df bc 45 12 ed bd 0c a3 0a 3d
       0.14027402 -0.02725096 -0.1157575 0.0338469
0002f0 96 9f 57 3c 55 a9 14 be f4 77 88 bb 8c 97 8d be
       0.013160607 -0.1451772 -0.00416469 -0.27654684
000300 44 31 18 3e 1e d9 c7 be ab c0 e4 be ba f1 cb be
       0.14862543 -0.39032835 -0.44678244 -0.3983286
000310 d5 fa b8 be 20 5c 93 bd a9 6b 5e 3e 30 63 22 be
       -0.3612887 -0.07195306 0.21720757 -0.1585815
000320 50 a1 84 3d 2d 62 9d be 45 f4 b3 3d 18 47 8c 3d
       0.064760804 -0.30738965 0.08786825 0.068494976
000330 15 f5 72 3e c4 76 89 3e 72 bf c1 be 16 bc 3b bd
       0.23726304 0.26848423 -0.37841374 -0.04583367
000340 d8 92 7d 3e e4 9b 9b bd b5 16 92 bd bb df 9d bd
       0.24763048 -0.07598093 -0.07133237 -0.07708689
000350 28 24 34 3e cd 12 ec bd 8a 6c 8e 3e 0e fb d3 bd
       0.17591918 -0.115270235 0.27817184 -0.10350619
000360 02 0e 2b 3e bf 77 4e 3e d3 48 6b 3e cd 48 f4 be
       0.16704562 0.20162867 0.22976999 -0.47711793
000370 04 93 54 3e 6b 4a 8d 3e 31 c3 88 bd 78 45 06 bd
       0.20759207 0.2759584 -0.06677855 -0.032781094
000380 23 5c b4 bd 6f db 0c be 2b 33 a1 be 06 1c 92 be
       -0.08806636 -0.13755582 -0.3148435 -0.28537005
000390 99 09 36 bf fa d8 b8 3d 9a d6 a7 3b 2a 27 66 3e
       -0.71108395 0.0902576 0.005122018 0.22475877
0003a0 51 cc 95 bd 86 60 20 3d 83 80 9f 3e 7b ff f4 bd
       -0.07314361 0.039154552 0.31152734 -0.119627915
0003b0 ec 6e e8 bd 75 03 28 3e 31 bf bc 3d c8 e4 99 3e
       -0.11349282 0.16407569 0.09216154 0.3005736
0003c0 3f 77 cf bd 6a 11 3d bf a4 f0 54 3e 75 b4 16 bf
       -0.10130166 -0.73854697 0.20794922 -0.58869106
0003d0 ad 56 d4 3e fb 25 04 3e a7 9e 84 3e fe a3 8e 3e
       0.41472378 0.12905113 0.25902292 0.2785949
0003e0 64 a2 91 3e e7 7b 0c ba fe 9e 85 bd f1 b5 55 3d
       0.28444207 -0.0005359039 -0.06524466 0.052175466
0003f0 97 ab 8a 3e 57 2f e6 3d 97 3c 59 be 89 03 91 3e
       0.27084038 0.11239498 -0.2121452 0.2832301

layers.5.bias f4 [16]
000000 13 69 23 3b dc 0d 4b 3c b5 5b 83 3e 2a f4 50 bc
       0.0024934455 0.012393441 0.25655904 -0.012753526
000010 30 c9 87 3d 2f 06 ce bc 2a 00 37 3e ab ef c0 3e
       0.0663017 -0.025149433 0.17871156 0.37682852
000020 36 53 05 3d a8 71 6f bd bc 79 64 bd f1 94 c5 bd
       0.03255006 -0.058458 -0.055780157 -0.09647549
000030 67 e8 36 3d c0 d9 10 be 1b a1 e4 3d 69 0a 28 3e
       0.04465523 -0.14145565 0.11163541 0.16410221

layers.7.weight f4 [4, 16]
000000 d7 98 6e bd b7 10 f9 be 60 4e 95 3e 56 2c 1a be
       -0.05825123 -0.48645565 0.29161358 -0.15055975
000010 33 d0 cc bd 6c 41 0d bd 81 a9 86 be eb 1b b8 3e
       -0.10000648 -0.03448622 -0.26301196 0.359588
000020 56 9a 0a 3d c1 0e 14 3e a7 8a a2 be 7a 5d 6f bc
       0.033838592 0.14458753 -0.31746408 -0.014609689
000030 60 a9 10 be 73 d2 fd bd 0d d2 01 be b4 13 bc 3c
       -0.14127111 -0.12393656 -0.12677784 0.022958614
000040 90 c6 c2 3e cb 43 9a be 78 9f e7 bb 16 41 c1 be
       0.38042116 -0.30129847 -0.0070685707 -0.3774497
000050 39 1c 06 3f 1c a6 29 3e a9 0a 97 bd 69 ae ef be
       0.52386814 0.16567272 -0.0737508 -0.46812752
000060 31 ad 3d 3e 36 8f ee be ed 2c 28 3e 7f 86 c8 3c
       0.18523099 -0.46593636 0.16423388 0.024478195
000070 d0 cd c5 3e 6b 7e 55 be 75 95 35 3e 9f d4 40 3e
       0.38633585 -0.20849006 0.17732795 0.18831109
000080 03 27 65 be 8f 2e 83 3e bc 2f ac be c6 32 9f bc
       -0.22378163 0.2562146 -0.33630168 -0.01943339
000090 ca 91 85 3e b7 f2 0e bf 66 b3 cd 3e fa 32 3b 3e
       0.2608779 -0.55839103 0.40175933 0.18281165
0000a0 ba 60 20 bd fb 19 23 bd a7 42 79 3e 8b 97 ef be
       -0.039154746 -0.0398197 0.24341832 -0.46795306
0000b0 25 50 8c 3d 6b 6b 3f be 07 be 4c be 59 e3 fd be
       0.06851224 -0.1869332 -0.19994365 -0.49587515
0000c0 a6 8f 73 be b9 b3 a5 3e fb f3 0e be a3 d0 d1 3d
       -0.23785266 0.3236368 -0.13960259 0.102448724
0000d0 ec c0 30 be b6 dc 71 be eb 28 bb be c8 74 8e bd
       -0.17261094 -0.23619351 -0.36554655 -0.06955868
0000e0 8c f9 17 be 30 dc 10 3e c6 17 9a 3e 67 4a e6 3e
       -0.14841288 0.14146495 0.30096263 0.4497864
0000f0 b1 35 02 be ea 83 d0 bd 87 e3 75 be 1c 17 ca 3c
       -0.12715794 -0.101814106 -0.24012576 0.024669223

layers.7.bias f4 [4]
000000 9e 2c 7b 3d cc dd 0f 3e ee 37 9b 3e d5 48 65 3d
       0.061321847 0.14049453 0.30316108 0.05597766

exp_avg f4 [32, 97]
000000 47 f0 f5 bb 6a 61 cf ba 32 50 22 39 5a 1e 82 bb
       -0.00750545 -0.0015821878 0.00015479399 -0.0039709033
000010 d8 91 90 bb 04 00 00 00 7f 71 02 3b df 5b df ba
       -0.004411917 6e-45 0.0019904075 -0.001704093
000020 a5 68 1e bb 18 2f 49 ba 2f f8 4f bb a5 d7 5c ba
       -0.002417126 -0.0007674559 -0.0031733622 -0.00084244675
000030 16 9b a9 ba 50 94 32 b8 50 b3 09 b9 c0 0e fe bb
       -0.0012939896 -4.2576634e-05 -0.00013132137 -0.007753223
000040 6a 8d 0f bb 84 04 e8 ba bb 4d a7 bb ca fc 3b bb
       -0.0021904358 -0.0017701541 -0.0051057017 -0.002868461
000050 3b 85 3a 3b 7d 5f 46 b7 3a 4c c3 b9 7d d3 6d b6
       0.002846076 -1.1823952e-05 -0.00037250092 -3.5438854e-06
000060 76 50 5f b9 b4 fc 87 b8 1e 8e d2 b8 66 87 0c b6
       -0.00021296911 -6.484371e-05 -0.00010040052 -2.0940438e-06
000070 13 81 86 b7 7c ad 66 b8 3e 92 13 b4 61 66 99 b8
       -1.603415e-05 -5.4997843e-05 -1.3743644e-07 -7.314678e-05
000080 0b ba 87 b6 a9 4b 5d b8 a6 5e 98 b2 35 5d cf 39
       -4.044972e-06 -5.276097e-05 -1.773817e-08 0.0003955156
000090 ee b0 7f b8 d9 43 2b b8 6d 0b 56 b9 e9 66 11 3a
       -6.0961516e-05 -4.0832765e-05 -0.00020412887 0.0005546646
0000a0 a7 84 3f b7 e6 a7 55 ae 17 b8 4b ba 02 e8 f4 b8
       -1.1415373e-05 -4.8579717e-11 -0.0007771267 -0.000116780415
0000b0 d4 6d 7c 39 fc bc 28 b7 0d 76 19 39 ff a0 cb 36
       0.00024073507 -1.0057582e-05 0.00014635194 6.068614e-06
0000c0 4c ad 73 37 b9 8e b2 b8 ac f5 0d 39 23 2e 8d 3a
       1.45242775e-05 -8.5142856e-05 0.00013538328 0.0010771196
0000d0 9a 66 0d b6 6b 7d 05 b9 c6 28 69 b8 07 f4 aa b9
       -2.107036e-06 -0.0001273059 -5.5589502e-05 -0.0003260674
0000e0 1b a5 50 ba 90 ec 01 b8 6c d8 12 3a 55 1e 65 ae
       -0.0007959173 -3.0976313e-05 0.00056017074 -5.2095512e-11
0000f0 76 82 05 b5 56 fb 51 b4 d5 99 d2 b5 6d 4d 47 34
       -4.9736207e-07 -1.9556077e-07 -1.569099e-06 1.8561487e-07
000100 df e5 04 b7 f7 b6 a7 ba a5 41 a1 33 c2 f0 2b 39
       -7.921334e-06 -0.0012795617 7.5090874e-08 0.0001639752
000110 bd 8a a3 3a 56 e7 a7 b8 32 84 a8 35 4e a8 f4 37
       0.001247726 -8.00627e-05 1.2555449e-06 2.916544e-05
000120 49 77 13 b9 da 84 67 b8 44 04 eb 39 de d1 e6 ba
       -0.0001406345 -5.519842e-05 0.0004482587 -0.0017610153
000130 18 7b 9e bb 7a 06 c6 b8 3a 8f 8f b7 7b 42 10 b9
       -0.0048364513 -9.442582e-05 -1.7113623e-05 -0.00013757676
000140 09 c0 53 b8 d4 6c 11 b7 56 66 2d 39 32 f0 17 ba
       -5.0485167e-05 -8.668012e-06 0.00016536689 -0.0005795985
000150 aa 6b cc b4 bd 0d c5 b8 62 ec 0e 38 4c bb 04 b6
       -3.8076297e-07 -9.396251e-05 3.4075587e-05 -1.9778554e-06
000160 a9 02 61 37 31 3a 6e a4 49 ba da ba ed 7b 9d b7
       1.3411664e-05 -5.1657313e-17 -0.0016687597 -1.8773566e-05
000170 4a d9 2f b4 95 ac 11 39 62 c2 58 36 bd 47 ea bd
       -1.6377194e-07 0.0001389257 3.2299654e-06 -0.11439464
000180 86 1b 9f bd 6d bc 55 3b 76 d8 e3 3a de 08 7f ba
       -0.077689216 0.0032613531 0.0017383236 -0.00097287993
000190 58 d3 f6 3b bc 40 b8 3a 00 00 00 00 2f 9c 9c bb
       0.0075325184 0.0014057378 0.0 -0.0047793607
0001a0 89 02 e1 39 b0 18 3e ba f4 fd f3 39 47 13 ed 3b
       0.00042917233 -0.00072516035 0.00046537782 0.007234964
0001b0 f9 eb 31 39 9c a8 16 ba 16 d4 71 b9 c2 7f 13 3a
       0.00016967942 -0.00057471707 -0.00023062559 0.00056266424
0001c0 8c 39 ab 3b f0 13 cd b8 e9 5d 6b 3a ce 39 00 bb
       0.005225366 -9.7788754e-05 0.0008978532 -0.0019565704
0001d0 a9 7f bc 3b d6 a3 d4 39 0e e1 fb 37 05 e8 11 3a
       0.005752523 0.00040557858 3.0026331e-05 0.00055658846
0001e0 4c 99 0b 36 ac 93 a7 33 cc f1 ba ba de 0d 54 b8
       2.0801845e-06 7.803405e-08 -0.0014262735 -5.0557654e-05
0001f0 18 ed ea b7 72 7b a4 35 ad 30 c9 36 42 45 98 b4
       -2.800538e-05 1.225488e-06 5.9959334e-06 -2.8362598e-07
000200 fe 3b dd 38 58 10 25 37 8e 8e 2c b5 95 09 48 33
       0.000105492756 9.838572e-06 -6.428244e-07 4.6574844e-08
000210 0a 1b d8 39 a5 3f 01 39 25 7a 13 39 7d a8 c7 38
       0.00041218876 0.00012326108 0.00014064515 9.520443e-05
000220 20 23 45 ba 9e 09 e3 2f 7e 5a ee ae c6 77 81 3a
       -0.00075201876 4.1297893e-10 -1.08390616e-10 0.0009877614
000230 96 11 6c 38 fd ad a1 39 51 dd 54 b8 64 5b f3 b8
       5.6283163e-05 0.00030837944 -5.0750856e-05 -0.00011604166
000240 d4 07 77 b9 6c 14 55 35 b5 db 00 3a fa b1 83 38
       -0.00023558672 7.93784e-07 0.00049155514 6.2797175e-05
000250 91 a4 65 39 99 a2 20 36 cd c6 da b5 bb dc fd 29
       0.00021900448 2.3936502e-06 -1.6300124e-06 1.12737476e-13
000260 07 61 45 39 bd de 27 bb 63 d0 a5 b6 b8 f9 38 b3
       0.0001882353 -0.002561494 -4.9416426e-06 -4.3067956e-08
000270 04 a1 41 2f 65 4d a1 9a 58 b3 89 b3 44 13 b8 b5
       1.7610452e-10 -6.671308e-23 -6.412182e-08 -1.3714675e-06
000280 12 2c 07 b5 be 42 94 b6 81 78 ed 39 5f 1d bc b4
       -5.035555e-07 -4.4185135e-06 0.00045293945 -3.50391e-07
000290 74 57 69 b9 e7 52 ce 37 85 47 b5 38 f6 c5 d4 35
       -0.0002225319 2.4595718e-05 8.644074e-05 1.5852845e-06
0002a0 86 0b 3b b8 8f 21 1f 38 c6 bc 5f 39 ce 72 b6 3a
       -4.4595006e-05 3.7939808e-05 0.00021337261 0.0013919713
0002b0 32 3d cb b9 22 65 e9 3b 40 b8 1d 39 df 84 ac 37
       -0.0003876477 0.0071226517 0.00015041325 2.056587e-05
0002c0 64 1e 88 b8 8e 4b dc 37 4f be b9 ae 1e 65 7d b9
       -6.490646e-05 2.6261227e-05 -8.4466316e-11 -0.0002416563
0002d0 92 be 2b bb 9c 72 00 b6 b6 3d b9 31 86 bd af 32
       -0.0026206118 -1.9140198e-06 5.3912244e-09 2.0458867e-08
0002e0 8b f5 80 2f e4 88 73 37 28 c9 cb 24 ff d1 64 38
       2.3457533e-10 1.4515801e-05 8.837799e-17 5.455501e-05
0002f0 10 56 8e 37 b6 33 f9 b2 51 c4 58 38 9a 6b 27 b7
       1.6967795e-05 -2.901093e-08 5.1681247e-05 -9.979029e-06
000300 46 b2 bf 3d c4 8b 58 bc 06 34 ae 3b c5 ee f2 3a
       0.09360175 -0.0132169165 0.0053162603 0.0018534294
000310 1a 76 da b9 7a ac 72 3b 81 e4 73 3b 04 00 00 00
       -0.00041668193 0.0037029074 0.0037215056 6e-45
000320 74 b1 46 bb 09 5a f4 3a c6 2c 6a 3b a4 87 07 bb
       -0.0030318173 0.0018642555 0.0035732253 -0.0020680213
000330 f5 57 53 3b 45 3d 46 3a c0 ef 62 3a 28 35 2b ba
       0.0032248471 0.00075622305 0.00086569414 -0.0006531053
000340 c2 77 d6 ba 05 38 f0 3b d8 d1 0e 3b a0 80 04 ba
       -0.0016362595 0.007330897 0.0021792557 -0.0005054567
000350 fb 5b 60 3b 8a e6 97 3b d3 74 80 bb 9f 16 29 37
       0.0034234512 0.0046356367 -0.0039201765 1.0078452e-05
000360 8c 49 f7 39 59 a9 43 36 62 7e 28 3a ef 01 c5 39
       0.00047166308 2.9155838e-06 0.0006427524 0.0003757621
000370 a4 65 78 38 ac 0d 20 37 f6 4a ee 37 99 e3 71 38
       5.9222468e-05 9.539926e-06 2.8406717e-05 5.7670844e-05
000380 8a e5 d3 34 eb 16 68 38 2c 80 a8 36 8f 39 66 38
       3.9468824e-07 5.5334454e-05 5.0217113e-06 5.488988e-05
000390 bc 91 a1 32 02 a5 45 b9 61 6c 7c 38 2b d5 3a 38
       1.880914e-08 -0.00018848854 6.0182418e-05 4.4544384e-05
0003a0 01 a6 7a 39 7f 42 5b ba ed 28 1a 37 2f d8 2f 2f
       0.00023903699 -0.00083640957 9.188644e-06 1.5992961e-10
0003b0 f7 5b c2 39 60 88 dd 38 8d 84 4f b9 a7 64 c4 36
       0.00037071083 0.00010563503 -0.00019790437 5.8529727e-06
0003c0 ef 00 87 b9 3c aa 82 38 8e c9 56 36 dd 37 a4 38
       -0.00025749902 6.230592e-05 3.2005805e-06 7.830535e-05
0003d0 dd 8f 42 b9 36 0d 88 bb 43 3f 89 b6 15 99 35 39
       -0.00018554875 -0.0041519655 -4.090283e-06 0.00017318533
0003e0 28 4c 5b 38 72 fc 9b 39 6e dd db 39 ba e8 14 38
       5.2284595e-05 0.0002975199 0.00041935913 3.5502693e-05
0003f0 ba a0 1b ba 1b ff 67 2e ab f7 49 35 49 ae 32 b4
       -0.0005936731 5.2749898e-11 7.523874e-07 -1.6640946e-07

exp_avg_sq f4 [32, 97]
000000 57 92 01 3a 70 6c 77 37 b7 98 f4 35 14 ac 92 37
       0.0004942766 1.4747595e-05 1.8223863e-06 1.7484686e-05
000010 f1 b3 c0 39 03 cf 0e 27 f0 d3 3f 39 34 81 cc 38
       0.0003675516 1.981868e-15 0.00018294132 9.751544e-05
000020 c8 6d b1 39 79 66 10 39 4f 61 99 37 49 84 15 38
       0.00033841864 0.00013771084 1.8284334e-05 3.564757e-05
000030 63 61 b5 38 8e 8c cb 38 e8 9f e1 39 13 aa 8e 39
       8.648892e-05 9.705975e-05 0.00043034484 0.00027211066
000040 1e 50 40 39 5d eb 8d 39 9d 38 10 39 2e 97 7c 39
       0.00018340393 0.00027068975 0.00013754 0.00024088912
000050 cc e9 43 38 78 1c 9e 33 59 b8 7c 36 ff 34 2e 34
       4.6709363e-05 7.362627e-08 3.765823e-06 1.6224293e-07
000060 64 b5 fc 35 29 a7 26 36 45 45 36 35 f7 61 12 33
       1.8828255e-06 2.4833228e-06 6.7901084e-07 3.4082372e-08
000070 7c 21 13 35 7b f9 aa 35 c5 80 77 33 9e c9 4d 35
       5.4810494e-07 1.2738595e-06 5.7626284e-08 7.666184e-07
000080 82 cd b8 33 59 a8 28 36 e1 c9 2e 34 59 bf 00 38
       8.605549e-08 2.5131942e-06 1.6278456e-07 3.0695785e-05
000090 e3 1f 16 35 6c aa 28 34 e5 7b 95 36 4a 2c b8 37
       5.5925756e-07 1.5708218e-07 4.4549693e-06 2.1955133e-05
0000a0 70 83 18 34 f7 c4 3e 2e 76 77 8c 37 f9 ff 7e 35
       1.420392e-07 4.3375938e-11 1.6744929e-05 9.499486e-07
0000b0 ba 5d cd 36 35 a9 29 35 76 9e 07 35 0c 86 c1 36
       6.1203873e-06 6.3203635e-07 5.052201e-07 5.7674533e-06
0000c0 ef 4b 8f 33 eb bb 86 36 81 82 0f 36 86 09 59 37
       6.672769e-08 4.0153877e-06 2.1384624e-06 1.2936425e-05
0000d0 d4 7f bc 34 e8 0d 47 35 d6 81 72 35 32 b5 84 36
       3.5110736e-07 7.4153513e-07 9.034096e-07 3.9550005e-06
0000e0 9b 41 de 36 43 86 2d 34 4a d6 2d 35 0a 52 34 33
       6.623753e-06 1.6160725e-07 6.4759354e-07 4.198413e-08
0000f0 fa 24 97 30 c0 b7 23 32 e2 de 78 33 36 db 0e 35
       1.0997205e-09 9.529629e-09 5.794471e-08 5.3218116e-07
000100 9f e1 52 34 ae 80 17 38 95 ff 4c 33 0c 58 ea 36
       1.9639855e-07 3.6121048e-05 4.7729902e-08 6.9839934e-06
000110 21 9d e3 35 93 8c d8 35 52 1f 5f 34 10 ba 77 35
       1.6958548e-06 1.6134167e-06 2.0779888e-07 9.2285427e-07
000120 c7 c6 69 37 d4 5e bb 36 df c9 86 39 1a 4b 0b 38
       1.3934164e-05 5.5840737e-06 0.00025708877 3.3210126e-05
000130 d8 0c 25 39 fa 78 36 37 ad 1a b3 33 79 bf f8 35
       0.00015740411 1.0876212e-05 8.340189e-08 1.8533166e-06
000140 10 02 fd 34 2d d9 05 35 f2 d8 6b 36 c7 40 52 39
       4.7126423e-07 4.9862393e-07 3.5144008e-06 0.00020051292
000150 4e de 96 32 8d 9b a3 34 24 b7 1d 34 9c de 7b 35
       1.756339e-08 3.0474294e-07 1.468839e-07 9.3828726e-07
000160 5f d3 8a 36 6e d3 ec 2e 19 5f ee 36 74 24 03 34
       4.1373273e-06 1.0769595e-10 7.1040236e-06 1.2213587e-07
000170 65 3f 94 33 c4 41 d1 34 c3 c2 fc 34 ae e9 42 3e
       6.9033185e-08 3.8977134e-07 4.7080366e-07 0.19034454
000180 01 d4 58 3d c6 09 41 3a 9b 1c d6 37 33 87 39 38
       0.052936558 0.0007363822 2.5524108e-05 4.423335e-05
000190 23 2d bb 38 5e 4f e0 38 00 00 00 00 4f e8 33 39
       8.925262e-05 0.000106959356 0.0 0.00017157312
0001a0 9a 7c f3 38 0b 54 e1 39 8d 47 88 39 eb 74 d8 37
       0.00011610352 0.0004297796 0.0002599325 2.580365e-05
0001b0 54 94 0c 38 79 98 2c 39 43 83 06 39 05 ab 33 3a
       3.3516742e-05 0.00016459999 0.00012828135 0.0006853792
0001c0 4c f8 d9 39 a9 de 53 39 92 d8 e0 39 c6 36 50 39
       0.0004157446 0.00020205475 0.00042885967 0.0001985683
0001d0 00 e0 f9 39 c4 78 23 38 c9 14 1f 33 ac 7d 04 37
       0.00047659874 3.89747e-05 3.7038976e-08 7.897073e-06
0001e0 d5 5e 97 32 00 58 18 35 1d 66 47 36 be 58 e2 34
       1.7621838e-08 5.675247e-07 2.9712749e-06 4.216035e-07
0001f0 d4 8c 84 33 d2 b9 5f 32 14 3e 8c 35 c1 c7 12 33
       6.1723455e-08 1.3022559e-08 1.044888e-06 3.417495e-08
000200 8e fd cc 33 46 38 32 35 31 12 b4 35 9e 23 86 32
       9.5456116e-08 6.6392056e-07 1.341634e-06 1.561585e-08
000210 81 6b f1 37 93 4d 1e 36 72 f2 ea 34 03 ba 9d 36
       2.87795e-05 2.3588989e-06 4.37623e-07 4.7006192e-06
000220 21 e0 57 38 2d fa ab 32 66 47 59 2f cf bd 64 38
       5.146873e-05 2.0020787e-08 1.9761401e-10 5.453621e-05
000230 0b 3b 29 35 be e6 1e 37 f4 9e 0e 35 84 97 d5 34
       6.3043325e-07 9.471258e-06 5.313043e-07 3.9784584e-07
000240 1e f7 a9 35 5f 9b 12 34 6c ff 08 37 ba 7c 12 36
       1.2663402e-06 1.3653833e-07 8.165702e-06 2.1828296e-06
000250 85 48 5b 36 59 7d b1 34 20 3d 29 34 f0 3d 85 32
       3.2675755e-06 3.3060022e-07 1.5761589e-07 1.5511404e-08
000260 80 2b d2 36 39 73 0b 37 88 0b 97 34 8d d4 1e 34
       6.2635518e-06 8.311873e-06 2.8134332e-07 1.4792222e-07
000270 f3 2d 61 32 25 90 35 31 bb 06 bd 32 03 5f cb 31
       1.3107171e-08 2.6420903e-09 2.2005556e-08 5.918879e-09
000280 34 65 e5 36 3b 0a aa 33 2e 68 f6 37 d0 8f 25 35
       6.8365134e-06 7.918103e-08 2.9373998e-05 6.1676565e-07
000290 f1 2e cb 37 29 b8 42 35 07 95 0f 36 33 7c 25 33
       2.4221345e-05 7.253862e-07 2.1395406e-06 3.8530015e-08
0002a0 94 c4 0d 34 ba db 3a 38 f3 8f c1 36 97 d7 f0 39
       1.3203163e-07 4.4550492e-05 5.768606e-06 0.00045936994
0002b0 00 0d 90 37 df 0a cd 39 0d 18 ca 37 29 30 f8 33
       1.7172191e-05 0.00039108747 2.4091476e-05 1.155716e-07
0002c0 f8 26 71 35 55 c1 03 36 2f ea cc 32 d1 6a d4 36
       8.9836203e-07 1.9633055e-06 2.385522e-08 6.3305274e-06
0002d0 36 ea 15 39 ef b4 25 33 91 d9 45 35 69 c5 61 33
       0.00014296998 3.8581614e-08 7.370482e-07 5.256644e-08
0002e0 98 f1 14 32 44 23 4c 36 23 88 aa 2e 91 71 c7 35
       8.669666e-09 3.0418896e-06 7.754888e-11 1.4859708e-06
0002f0 a9 d5 86 33 d8 e2 46 34 46 73 f5 34 f0 4c 72 33
       6.278726e-08 1.8522712e-07 4.571868e-07 5.641499e-08
000300 c7 f0 a4 3e 50 7a 74 3d 49 25 24 3a 50 98 88 37
       0.3221495 0.05968696 0.00062616594 1.628339e-05
000310 f4 ab a6 36 2b 95 d2 37 85 2d 9a 39 db 06 61 2a
       4.9672035e-06 2.5103413e-05 0.00029407084 1.9986393e-13
000320 3e bc 8c 39 67 92 d3 38 c9 8e c2 39 e9 39 1b 39
       0.00026843132 0.000100885336 0.00037108947 0.00014803525
000330 f5 64 c2 37 e4 6b 21 38 8a 79 e6 38 8a 91 50 39
       2.3173614e-05 3.8485872e-05 0.00010989893 0.00019890643
000340 ef e2 06 3a 4f 5c 99 39 8a 82 88 39 2f b2 b4 39
       0.000514551 0.0002925121 0.000260372 0.00034465033
000350 9a b8 3a 39 93 31 7b 39 4e 67 6d 38 d5 25 60 34
       0.00017807112 0.00023955693 5.6601413e-05 2.0875389e-07
000360 8a 66 ba 36 cc 33 05 34 63 21 e8 35 d8 37 8b 36
       5.555169e-06 1.2405434e-07 1.7295064e-06 4.149024e-06
000370 07 35 35 35 c0 5a 9b 33 6c e1 37 35 1f 1d 61 35
       6.750492e-07 7.234257e-08 6.8500844e-07 8.386141e-07
000380 8a 42 68 33 90 a9 bd 35 7e 90 18 34 ae a8 87 35
       5.4077226e-08 1.4130947e-06 1.4208669e-07 1.0107376e-06
000390 db c9 1d 35 9d d0 09 38 22 95 e1 34 85 12 84 34
       5.8780796e-07 3.285763e-05 4.2018024e-07 2.460039e-07
0003a0 dd bf 96 36 c9 8a ea 37 a4 ea 6c 34 56 65 c5 2f
       4.492684e-06 2.79596e-05 2.2064575e-07 3.5906095e-10
0003b0 d5 74 c6 37 93 0f c0 35 51 c6 1f 37 01 08 40 35
       2.3657843e-05 1.4309647e-06 9.523313e-06 7.153722e-07
0003c0 8d 95 6d 35 db e9 3d 36 e8 de 99 33 a0 93 a8 36
       8.8507005e-07 2.8299316e-06 7.165164e-08 5.023976e-06
0003d0 43 e3 f5 35 2e 13 a0 37 97 53 24 35 c6 cc 1a 36
       1.8320064e-06 1.9082418e-05 6.12164e-07 2.3066982e-06
0003e0 fb 3f 2e 35 8a ec d7 36 fa d0 0e 37 31 fa 18 34
       6.4913155e-07 6.435036e-06 8.512516e-06 1.4247122e-07
0003f0 ae e0 51 35 55 2b 3e 33 7f 3e 8d 31 01 11 34 32
       7.818552e-07 4.4277233e-08 4.110745e-09 1.0481245e-08

exp_avg f4 [32]
000000 24 14 17 bc ce 45 a3 3b 64 91 c1 3b 84 b5 6e bc
       -0.0092211105 0.0049826866 0.0059072245 -0.014569644
000010 96 21 22 bc 04 00 00 00 b1 72 9f bc 10 1c 72 3c
       -0.009895703 6e-45 -0.019463869 0.014777198
000020 2e be 99 bb 5e 6c 2e bc 36 dc 2b 3c 04 a2 c2 bc
       -0.0046918606 -0.010645954 0.010489514 -0.023758896
000030 25 73 8c bc ae 7f 59 3c 88 3a 40 b9 58 b1 33 3d
       -0.017144749 0.01327507 -0.00018332351 0.0438703
000040 37 4b 13 3c 58 eb 52 3c a0 1b ae 3b d6 00 8b bc
       0.008990101 0.012873493 0.0053133518 -0.016968172
000050 1a c5 34 3c ce 19 69 bc 5c 56 43 3b f4 64 0d 3d
       0.011033321 -0.014227344 0.0029806113 0.034520105
000060 93 39 8f bc 2c 64 3c 3c ad fa 20 bd da 33 16 bb
       -0.017483508 0.011498492 -0.039301563 -0.002291909
000070 1c e3 da 3b e2 fa 3c bd 0c 1f e7 3c 20 02 03 b9
       0.0066799056 -0.046137698 0.028213046 -0.00012493925

exp_avg_sq f4 [32]
000000 d3 87 71 3a 8c ce b8 3a fc b5 96 3a 4f af 3d 3a
       0.000921366 0.0014099642 0.0011498327 0.0007235901
000010 83 60 de 3a da 20 3c 00 58 86 55 3a 24 ce de 3a
       0.0016966019 5.521915e-39 0.0008145324 0.001699869
000020 d4 e5 5e 3a 64 42 f7 39 e4 cd 9c 39 1f 96 c4 3b
       0.0008502875 0.00047160976 0.0002990804 0.005999341
000030 cb f8 c4 3a b6 b0 bb 3a ca 1c 0c 3a 1e 75 2c 3b
       0.0015027759 0.0014319632 0.0005344866 0.0026314924
000040 fd 4b 41 3a 2c 40 db 3a 36 ea 9e 3a bb 3b d8 3a
       0.0007373689 0.0016727499 0.0012124244 0.0016497293
000050 d0 c2 41 3a d3 00 74 3a 2a 71 c3 3a 16 c2 8e 3b
       0.0007391395 0.0009307984 0.0014911045 0.004356633
000060 a2 c6 fb 3a 88 c6 bb 3a 43 1c 7f 3b ee 01 c1 38
       0.0019208977 0.0014326135 0.0038926757 9.2033166e-05
000070 8e 1d a4 3a 5c 09 10 3b 08 36 88 3a fa 6d 29 3b
       0.0012521015 0.0021978235 0.0010392079 0.0025852905

exp_avg f4 [32, 32]
000000 d3 7d a5 3a c7 b6 e4 3a dc c0 29 3b 7f bd 06 3b
       0.0012626 0.0017449491 0.0025902307 0.0020559726
000010 57 e8 58 39 00 00 00 00 21 3f 58 3b 64 5e e0 3a
       0.00020685919 0.0 0.0032996612 0.0017117974
000020 51 98 07 39 c6 ff 7d 3a 1a 31 5e 3b 51 e8 8f 3a
       0.00012931346 0.00096892973 0.0033903779 0.001097927
000030 20 54 ba 3a 4a dc 81 39 22 28 ac 3b 00 39 fd 3a
       0.0014215745 0.00024768926 0.0052538076 0.0019319355
000040 40 d1 c9 39 fe 19 2a 3b 6d f1 77 3a a7 4c 72 3a
       0.0003849361 0.0025955434 0.00094582775 0.00092429895
000050 e0 4f 0c 3b c6 25 30 3b 43 ea bd 39 05 4a 52 3b
       0.0021409914 0.0026877983 0.00036223428 0.0032087576
000060 8a d6 df 3a 5d 11 c3 3a 6e c7 1b 3b e2 ac 37 b8
       0.0017077487 0.0014882494 0.0023769992 -4.379161e-05
000070 62 dd b2 3a 87 aa 10 3b 43 7c 18 3a 42 c2 19 3b
       0.00136463 0.0022074298 0.0005816856 0.0023461734
000080 e3 fc 94 bc de 9f a4 bb 03 7f b3 bc af ea 8b bb
       -0.018186992 -0.0050239405 -0.02191115 -0.00426992
000090 b2 43 73 bc 04 00 00 80 fa 09 c8 bc 4f af cc bb
       -0.014847683 -6e-45 -0.02441882 -0.0062464844
0000a0 d8 b6 db b9 d5 d8 6c bc 2b 34 a9 bc 72 98 65 bb
       -0.00041907164 -0.014455994 -0.020654758 -0.0035033491
0000b0 57 26 49 bc 82 b5 f9 bb a3 cd 11 bd ed dd 62 bc
       -0.012277207 -0.0076205144 -0.0355965 -0.013846857
0000c0 81 36 32 bc 56 21 a4 bc 34 76 89 bb d6 0c e1 bb
       -0.010877253 -0.020035427 -0.004194999 -0.0068679852
0000d0 dd fa b4 bc df 28 4d bc 53 7c 3b bb c8 1f 5f bc
       -0.022092277 -0.012521951 -0.0028608039 -0.013618417
0000e0 0a 61 45 bc 7f a8 85 bb a9 f9 e2 bb 52 7d 0f b9
       -0.012047062 -0.004078924 -0.0069267345 -0.00013684228
0000f0 24 54 8e bb 98 21 82 bc b2 12 54 bc 12 52 68 bc
       -0.0043435264 -0.01588516 -0.01294391 -0.014179723
000100 a2 e7 53 bc 10 68 9c b8 8c 76 12 bc 57 41 03 bb
       -0.012933644 -7.458043e-05 -0.008939397 -0.002002796
000110 c4 3a f6 bb 04 00 00 00 55 75 78 bc 40 12 18 bb
       -0.0075143296 6e-45 -0.015164693 -0.0023204237
000120 f6 25 92 b9 38 aa 1d bc 99 80 1d bc 10 17 2d bb
       -0.00027875573 -0.009623103 -0.00961318 -0.0026411451
000130 f9 d2 c2 bb b3 01 72 b9 c2 86 a7 bc aa df 57 bb
       -0.00594556 -0.00023079551 -0.02045 -0.003293971
000140 c1 7f bb bb 97 4b 20 bc fc 13 5c bb 70 53 7c bb
       -0.0057220166 -0.009783647 -0.0033581248 -0.003850188
000150 8e 3a 3c bc 97 b6 a0 bb bc 5a 05 bb 5e d4 bf bb
       -0.01148857 -0.004904579 -0.0020348271 -0.0058541736
000160 3e a0 f4 bb a8 15 f6 38 1d d3 07 bb 9e 9b 9d b7
       -0.0074653914 0.00011734228 -0.0020725199 -1.8788323e-05
000170 62 ed 0d b9 4a a0 16 bc 9b 57 82 bb 8d 8a c6 bb
       -0.0001353524 -0.009193489 -0.0039777285 -0.006058997
000180 d1 b0 78 3b e7 5b d6 3a 5f b7 a6 3b 69 43 6c 3a
       0.0037947188 0.0016354293 0.0050877775 0.00090127304
000190 b5 37 12 3b 04 00 00 80 5d 70 c2 3b f6 82 9f 3a
       0.0022311036 -6e-45 0.005933805 0.0012169767
0001a0 af b4 d4 38 cf be 41 3b 32 e9 8d 3b ad 07 3f 3a
       0.00010142603 0.0029563194 0.0043307776 0.00072872156
0001b0 d1 5c 5f 3b 52 54 82 3a 7c 0b 0a 3c 5c 88 1a 3b
       0.0034082422 0.0009943342 0.00842559 0.0023579812
0001c0 d1 01 23 3b ad ee 66 3b b1 83 48 3a 42 29 a5 3a
       0.0024872909 0.0035237477 0.0007649018 0.0012600797
0001d0 d8 4c 6c 3b d4 16 80 3b 4f 14 83 39 45 18 7f 3b
       0.0036056545 0.0039089713 0.00025001398 0.0038924378
0001e0 00 b3 3b 3b 4f a6 0f 3a 2a 04 eb 3a 64 7f 5c 37
       0.0028640628 0.0005479799 0.0017930318 1.3142682e-05
0001f0 53 9e 5c 3a e7 56 8c 3b e6 78 f3 3a 96 58 82 3b
       0.0008415926 0.0042828205 0.0018575459 0.0039778454
000200 0c e7 84 bc de e5 5e bb 27 15 91 bc 1a 35 68 bb
       -0.016223453 -0.0034011523 -0.017710282 -0.0035432042
000210 23 3b 66 bc 04 00 00 80 1e 6d a1 bc 54 bb c0 bb
       -0.014052185 -6e-45 -0.019705351 -0.0058817063
000220 85 35 84 b9 42 a4 59 bc 9e 50 8e bc b8 d3 23 bb
       -0.00025216877 -0.013283791 -0.017372426 -0.002499802
000230 73 2c 23 bc 51 f2 8a bb 44 c1 04 bd 72 c3 26 bc
       -0.009959328 -0.004240312 -0.032410875 -0.010178434
000240 53 6e 04 bc c5 a3 89 bc ac 92 49 bb fe e8 c8 bb
       -0.008082944 -0.016801724 -0.003075759 -0.0061312905
000250 6c cb 9b bc 30 3d 2f bc b4 36 03 bb 98 15 38 bc
       -0.019017898 -0.010695741 -0.002002162 -0.011235617
000260 da 5f ed bb 00 e9 22 bb d3 bd b0 bb 06 45 bd b7
       -0.0072440924 -0.0024858117 -0.0053937226 -2.2562697e-05
000270 ef cf 5a bb 5d 8e 5d bc 69 ba 11 bc 83 00 1a bc
       -0.0033388098 -0.013522712 -0.008894541 -0.009399536
000280 e1 77 ef 3b 3e ab ea 39 c4 e5 4c 3b d0 5e c1 3a
       0.007307992 0.00044759543 0.003126488 0.0014752988
000290 b7 ef 05 3b 04 00 00 80 d3 46 1b 3c 37 07 26 ba
       0.002043707 -6e-45 0.009477335 -0.00063334726
0002a0 3e 7e 43 ba 87 e6 bf 3a a5 a5 82 3b ce 2d 8d 3a
       -0.0007457471 0.0014640846 0.0039870315 0.0010771097
0002b0 f1 0f 5f 3b bb 7e 2d 3a 36 93 c1 3b d0 10 8c 3b
       0.0034036601 0.00066183106 0.0059074415 0.004274465
0002c0 41 7c 9c 3b 1c 7b 7a 3b de b6 85 3b 33 bb 04 3a
       0.0047755544 0.0038220352 0.0040806374 0.0005063295
0002d0 8d 74 02 3c a5 f3 40 ba 80 8b 4d 3b 62 78 41 3b
       0.007962358 -0.00073605246 0.0031363666 0.0029521217
0002e0 8e 30 f8 3b c0 e7 a0 b8 a8 4e 31 b9 02 6e 11 b9
       0.0075741475 -7.672561e-05 -0.00016909337 -0.00013869259
0002f0 cc 8f 39 ba 33 ab 86 3b 29 f3 78 3b 4e d6 d2 3b
       -0.00070786173 0.004109764 0.0037986732 0.0064342385
000300 db 9f 0a 3b 7e 9b 23 3b c0 2f 91 3b 77 07 8b 3a
       0.002115241 0.0024964507 0.004430741 0.0010607083
000310 21 84 69 3a 04 00 00 00 9a 61 6c 3b d0 97 d1 3a
       0.00089079334 6e-45 0.0036068917 0.0015990678
000320 ee 31 27 b8 ae 0b 62 3a 9c 7b 9f 3b b0 f0 a5 b9
       -3.9862403e-05 0.0008622956 0.0048670303 -0.0003165058
000330 e5 c9 54 3a c6 af 67 3a 12 86 ce 3b a8 dc 7a 3b
       0.0008117243 0.0008838143 0.0063026035 0.0038278494
000340 ef 29 99 3a 35 8a 82 3b 4c 72 95 39 6f 88 56 3a
       0.0011685471 0.0039837607 0.00028504652 0.00081837823
000350 db a8 92 3b fe 09 33 3b ac 1b 2b 39 30 44 81 3b
       0.0044756955 0.0027319188 0.0001631814 0.003944896
000360 13 85 7a 3a c4 97 a8 3a bb a6 0e 3b e4 78 ef b7
       0.0009556573 0.0012862612 0.002176686 -2.8547314e-05
000370 c7 b8 09 3b d6 d8 17 3b 71 7d 96 3a 8c 6b 48 3b
       0.0021014677 0.0023170016 0.0011481476 0.003058168
000380 20 46 48 3a b2 45 1f 39 e2 67 f1 ba f8 e3 a8 3a
       0.0007639844 0.00015189385 -0.00184178 0.0012885323
000390 f4 9c 4c 3a 00 00 00 00 f8 1f 57 3a 82 a0 e4 b9
       0.000780537 0.0 0.0008206363 -0.00043607136
0003a0 09 d3 53 b8 b0 00 07 b9 42 85 a5 ba b5 3a 26 3b
       -5.0502862e-05 -0.0001287486 -0.0012628215 0.0025364582
0003b0 33 fa e3 3a d4 e1 82 3a 00 6a ad ba 60 cf a6 b9
       0.0017393291 0.0009985515 -0.0013230443 -0.00031816494
0003c0 48 77 96 b9 00 59 ad 36 c7 22 b3 3a e8 e8 a1 b9
       -0.000286991 5.1661627e-06 0.0013666981 -0.00030881842
0003d0 28 de f5 39 24 3a 48 b9 80 c7 14 3b 1a 78 12 ba
       0.0004689556 -0.00019095145 0.002270192 -0.00055873545
0003e0 ca 43 14 3b 64 16 7e 3a 60 d4 87 b6 12 2b a9 b7
       0.0022623413 0.00096926675 -4.048037e-06 -2.0166426e-05
0003f0 41 21 b9 b8 40 97 fb 38 35 bd a3 3a 60 c7 3f b8
       -8.8276814e-05 0.00011996785 0.0012492301 -4.572363e-05
