app/profiler/bests/s.ckpt (torch, 71155 bytes, 24 tensors)

layers.0.weight f4 [32, 97]
000000 1a 0f 4b 3d 52 76 33 be 5d d3 ce 3b fc 38 d7 3d
       0.04957495 -0.17525604 0.0063118176 0.10508916
000010 6f b9 ab bc c4 d8 35 3d 59 60 70 3d 3e 35 b0 3c
       -0.020962445 0.044396177 0.058685634 0.021509763
000020 ea 5c ac 3c 82 ab b5 3b 4d 1b d1 bc 99 66 0f bc
       0.021040399 0.005544127 -0.025525713 -0.0087524885
000030 ad 2a 4e be 61 0f 84 bd f9 d7 49 bd 42 8e 74 3e
       -0.20133467 -0.06448246 -0.049278233 0.23882392
000040 5d 1c 69 bd ed cf a9 bd fb fc 0f bd 57 11 11 bd
       -0.056911815 -0.08291612 -0.03515337 -0.035416927
000050 28 ff 9d 3c 22 c9 ab 3c 14 1d d0 bc b8 e4 6c 3d
       0.019286707 0.020969931 -0.02540449 0.05783531
000060 7e 1e 9e 3d 7e d1 f1 3d 91 96 0a be 99 3b 82 bc
       0.0772066 0.118075356 -0.13533999 -0.015897559
000070 b2 02 69 3d 0e 13 bd 3d ef bc ed bd 89 f7 4b 3d
       0.056887336 0.0923215 -0.11608302 0.049796615
000080 a4 4c d8 3d 8d 46 f2 3d e6 18 de bd 0a 02 9f 3c
       0.10561493 0.11829863 -0.10844593 0.019410152
000090 a7 f5 83 3d 69 ea cf bd 7f c4 75 bd 7c 74 c3 3b
       0.06443339 -0.10152132 -0.060001846 0.0059648138
0000a0 d0 32 c1 3d 4f ba 69 3c 35 da 16 be 39 d7 fb bd
       0.0943352 0.014265611 -0.14731677 -0.1229691
0000b0 70 ec 9d bb 6f cc bc bd f6 bd df 3c 44 49 50 bd
       -0.0048194453 -0.0921868 0.02731226 -0.05085112
0000c0 d5 58 c0 bc ca 80 b5 3d fe bf 04 3e ce 92 93 bb
       -0.023479858 0.08862455 0.12963864 -0.0045035845
0000d0 44 46 24 3c b1 05 4f 3e d2 85 7a 3d 31 7c fd 3c
       0.010026518 0.20217015 0.061162777 0.030943008
0000e0 14 2d 74 3d 35 4a 53 3d 7f 47 cc 3d ba 41 18 3d
       0.059613302 0.05158444 0.09974574 0.037172057
0000f0 4e a1 08 be 49 6d 30 3d 2d 77 c9 3d e8 b5 46 3d
       -0.13342783 0.043072972 0.09837184 0.048513323
000100 dd 81 95 3d b0 16 ce 3d 33 b9 7d bc 0f 22 43 3e
       0.0730016 0.10062921 -0.0154860495 0.19055961
000110 b6 d7 fb 3d fa de 9a 3d c7 5b cc bc 68 b0 c7 bd
       0.12297003 0.07562061 -0.024946107 -0.09750444
000120 03 2c 07 bd 55 23 57 3d f8 94 c1 bd 37 81 71 bd
       -0.033000957 0.05252393 -0.09452242 -0.05896112
000130 92 df 68 bc e0 40 85 3d 07 54 15 bc 3f 48 a8 3c
       -0.01421346 0.065065145 -0.009114272 0.020542262
000140 4b f2 0a 3e dc 15 a2 bc 4e 1b 38 3d 57 49 6c bd
       0.1356899 -0.019785814 0.044947915 -0.05768713
000150 6c 92 ba bc bb 5d e2 3c 54 4f ca 3d 41 9f ae bc
       -0.022774898 0.027632585 0.09878412 -0.021316173
000160 22 1f ac 3c cf 6a db bd 34 70 c3 3c 47 07 27 3e
       0.021010939 -0.107137315 0.023857214 0.1631137
000170 60 68 fe 3d c7 a7 4e bd bf d1 e6 bc d3 f8 9b 3d
       0.12422252 -0.050452974 -0.028176187 0.07615819
000180 3f 46 19 bd 91 72 46 3d c1 3c b3 bd b2 98 64 3c
       -0.037420508 0.048449103 -0.08751822 0.013952421
000190 ca e8 aa 3d a5 67 59 bc 19 c8 8a bd 3f 67 b8 3c
       0.08345182 -0.01326934 -0.06776447 0.02251017
0001a0 ec 81 d9 ba 73 25 46 bd 91 f1 7d bd 62 68 4f bc
       -0.0016594506 -0.048375558 -0.061997954 -0.012659164
0001b0 71 12 11 bc 5c 82 89 3d e2 35 2c 3e 9e d0 6b bd
       -0.008854494 0.06714317 0.1681743 -0.057572
0001c0 82 90 08 3e a7 bc 95 bd 62 84 a5 bd 25 c9 88 bd
       0.13336375 -0.07311373 -0.08081891 -0.0667899
0001d0 38 de d6 bc 4b 18 8e bd f9 e1 4c 3c b7 21 d3 bc
       -0.026229009 -0.06938227 0.012505048 -0.025772912
0001e0 12 cb 16 3a 24 a2 88 bd c2 9d aa bd 80 ff 2d be
       0.0005752306 -0.06671551 -0.08330871 -0.16991997
0001f0 f9 fe af 3c 1e 7a 3c bd 5a 8b 73 bc a7 9c 27 bd
       0.021483885 -0.046014898 -0.014864767 -0.04092088
000200 5a 96 18 3e c7 68 1d 3d bf bc 83 bb 0e aa 4b bc
       0.14901105 0.03843 -0.004020303 -0.012430681
000210 6b 46 ff 3c 7b 53 da bd a2 fe 19 3e ca 1b bc bc
       0.031161508 -0.10660454 0.15038541 -0.02296247
000220 f9 21 48 3d 32 25 85 3e bd 4a b7 bd 46 07 aa 3c
       0.048860524 0.2600494 -0.08949802 0.020755421
000230 20 c4 2a be dd fd a0 3d 66 c6 9b bb 10 8d 59 3e
       -0.16676378 0.078609206 -0.0047538755 0.21245217
000240 f3 55 85 3d b3 c3 da bd 7e 1f 1e 3c f9 bd ab 3d
       0.06510534 -0.10681858 0.009651063 0.08385844
000250 53 8f 32 3c e3 fc da 3d e7 69 89 bd d3 40 55 be
       0.010898429 0.106927656 -0.067096524 -0.2082551
000260 28 8a cc 3c ba 9e 7a bc 5e 69 3e 3d 6f 10 45 3d
       0.024968222 -0.015296632 0.046487205 0.048111375
000270 37 c6 35 bd 4c 99 a0 bd 7e f3 27 3e bf 0f 64 bb
       -0.044378486 -0.07841739 0.16401479 -0.0034799424
000280 c8 db c0 bc 41 01 b3 3d f9 00 aa 3d 1a a7 46 3d
       -0.0235423 0.087404735 0.08300967 0.048499204
000290 61 8d a2 bb 18 b8 7a 3d df f7 79 3d b3 4d 07 3c
       -0.0049607013 0.06121072 0.061027404 0.008258271
0002a0 a9 9f f4 bd bd cf 98 bc aa 83 02 be 61 c5 cb bd
       -0.11944515 -0.018653745 -0.12745538 -0.099497564
0002b0 f3 92 65 bd be 08 99 bb 5e 04 e2 bd 86 ec ad 3d
       -0.056048345 -0.0046702316 -0.11035989 0.08492379
0002c0 c2 7f 83 3d 57 61 03 be ff 5b a8 3d 2c 9b b0 bd
       0.06420852 -0.12830101 0.08220672 -0.08623347
0002d0 21 fb 55 bd ee 4e d8 39 0a 0e 23 bd 91 e8 2b bd
       -0.05224145 0.00041257538 -0.03980831 -0.04196984
0002e0 10 08 29 3e ae e5 dc bb 44 79 85 3e b7 67 1b 3e
       0.16506982 -0.006741247 0.2606908 0.15176283
0002f0 90 f4 31 3e c6 76 80 bd 31 71 a8 bd ae 47 dc 3d
       0.1737845 -0.06272654 -0.082247145 0.10755859
000300 c2 22 2c 3d 5e 84 82 3c b5 67 12 3c 57 31 cd 3c
       0.042025335 0.015932258 0.0089358585 0.025047941
000310 92 a0 89 3c 19 f3 ce 3c 20 81 8c bc 8e 48 95 3d
       0.016800199 0.025262402 -0.017151415 0.07289229
000320 c3 76 1d bd c4 fd 3c be 21 3d b3 3d 2c 34 90 bd
       -0.038443338 -0.18456179 0.08751894 -0.07041201
000330 1d d5 77 3b 0e a8 5d 3b 34 61 4b 3c 80 a2 94 3d
       0.0037816234 0.0033822092 0.012413312 0.07257557
000340 e4 5d 0e 3e d9 ab 5d be a5 ef 09 3d 3f 0a 7f 3c
       0.13903004 -0.21647586 0.03367581 0.015566408
000350 be 18 7e bd 28 6b ef 3c 5f f2 39 3e cf 02 28 3b
       -0.062035315 0.0292259 0.18158863 0.002563644
000360 99 30 f4 3c ec 79 4c bd 87 f6 03 be 37 e9 e9 3d
       0.02980833 -0.04992096 -0.12887011 0.11421435
000370 e1 3a 65 3d 15 a5 5b 3d d8 6e a6 bc 30 19 6e bc
       0.055964354 0.05362423 -0.020316526 -0.014532372
000380 b0 63 2b bd d3 9b 0e bd f1 88 8d bd 29 35 81 bc
       -0.041843116 -0.034816574 -0.06910885 -0.015772419
000390 fa 3a 9f 3b a1 5b 55 3c 9d 9f 54 3d 51 ab a0 3d
       0.0048593255 0.013022334 0.05191003 0.07845176
0003a0 e4 f3 2f 3d fa 0a 3e 3d db e7 5b bd ae 2f b5 bc
       0.0429572 0.046397187 -0.05368791 -0.022117462
0003b0 8b 9b 94 3c 90 78 f1 3d 42 9a 8c 3d be 94 3b bd
       0.018140575 0.117905736 0.0686536 -0.04579615
0003c0 15 19 40 bd ff 37 a2 bd b6 e4 c9 3d 91 38 8a bc
       -0.04689892 -0.07920837 0.09858076 -0.016872676
0003d0 f6 e2 0e 3d 1f 82 36 3d 0b 92 96 3d a5 bb 21 be
       0.034884416 0.044557687 0.07352074 -0.15794237
0003e0 dc 79 57 3d c7 b9 82 bd bb d1 12 be 43 15 bd bb
       0.05260645 -0.063830905 -0.14337818 -0.005770357
0003f0 19 f2 bc bd bb 66 a7 3c 80 89 ab bd 2f 33 00 bd
       -0.09225864 0.020434728 -0.083758354 -0.031298812

layers.0.bias f4 [32]
000000 0e 5b 7e bd d4 ab a5 3d 4d 50 d9 3c e2 ab 66 3d
       -0.062098555 0.08089414 0.026527548 0.056316264
000010 e6 52 8b 3d cd b0 32 be 2a f0 ce 3c c4 f2 28 bd
       0.06802921 -0.17450257 0.025261004 -0.041247144
000020 fd 2f 83 bb 46 6c cd bd 06 f1 9b bc ee 10 d6 3c
       -0.0040035234 -0.10030417 -0.019035827 0.02613112
000030 b6 09 82 3d b9 23 f1 3b e1 ea a0 bd ed 21 ba 3c
       0.063495085 0.007358995 -0.078572996 0.022721255
000040 04 ce 1c bd e8 e3 7b bc 69 67 84 bd 85 0e 15 bd
       -0.03828241 -0.015374161 -0.064650364 -0.0363908
000050 18 37 0c bc e0 c7 3e 3e d5 2b cf 3d dd 9b 58 bd
       -0.008558057 0.18630934 0.10115782 -0.052883018
000060 58 dd c3 3c 2c 3e f3 3d c2 41 41 3d 68 d5 9f 3d
       0.023909256 0.11877093 0.047181852 0.07804376
000070 1b 3c 0e 3c c5 09 33 3d 4c ec b2 3c 35 2f 86 bd
       0.008681322 0.04371049 0.02184119 -0.06551973

layers.2.weight f4 [32, 32]
000000 d4 e0 d8 bd 3e 5d bb 3c dd 50 1d 3d d6 1e a3 bc
       -0.105897576 0.02287161 0.038407195 -0.019912165
000010 2c 92 25 3d dc 5e e3 3d da 55 45 bc ab 5f b8 be
       0.040422603 0.11102077 -0.012044394 -0.3601049
000020 92 8c 03 bd 7a 60 09 be 4b 7e bf 3e e3 fe 6a 3d
       -0.03211648 -0.13415709 0.3740104 0.057371985
000030 5e 64 80 bb 4c db 0a be c3 5f bd 3d 9d 42 da bd
       -0.0039182147 -0.13560218 0.09246781 -0.10657237
000040 a8 6d 4a 3d ff d7 cc 3d df dc d1 3b 87 6e a9 3e
       0.049420983 0.100021355 0.0064045037 0.33092138
000050 5b e6 5d 3d a1 84 6d be a1 89 54 3e 51 d3 19 3d
       0.054174762 -0.23195125 0.20755626 0.037555043
000060 f6 2a 72 bd ac c6 3b 3d 52 66 08 bd 83 c6 14 bd
       -0.059123002 0.045843765 -0.033300705 -0.036322128
000070 08 db ed bd f3 3f c2 3d 2e 41 07 3d 84 0a e9 bd
       -0.116140425 0.094848536 0.033021145 -0.11378959
000080 6b f7 be bd a1 73 02 3e f9 43 45 3d 2e ae ce bd
       -0.09324535 0.12739421 0.048160527 -0.10091816
000090 67 30 7e 3d 29 e2 d8 3c 45 1e 46 bd 1c 1c ec bc
       0.06205788 0.026475029 -0.04836871 -0.028821997
0000a0 23 47 ae bd f3 5d 9d 3d 61 56 bb 3d 4b b2 20 be
       -0.08509662 0.07683935 0.09147335 -0.15693013
0000b0 d2 8d 1b 3e 9d d0 a4 3d b2 63 ef 3d a1 d6 7b 3d
       0.15190819 0.08047602 0.11688937 0.061483983
0000c0 a9 51 78 3c 92 24 8e bd 0e ac 13 3e 34 85 5b bd
       0.015156188 -0.06940569 0.14421102 -0.05359383
0000d0 e7 ff 6c bd 5c 46 64 3c 75 9c f9 bd 2f fd dc 3d
       -0.057861235 0.013932791 -0.12188045 0.107904784
0000e0 2a 3e af bd 67 9a cd 3a af ab 84 bd 41 53 9d 3d
       -0.08556779 0.0015686274 -0.064780585 0.07681895
0000f0 c5 07 78 bd e5 64 11 bd c2 c4 e5 3d d9 9e 1d bc
       -0.060554285 -0.03549661 0.11219169 -0.009620392
000100 b4 eb 61 be 4f dd 93 3d 6b 2f 3a 3d b3 78 41 bd
       -0.2206257 0.07219946 0.045455378 -0.04723425
000110 43 0c 6c bd 67 88 9e 3d 4a da e4 3d ad 25 16 be
       -0.05762888 0.077408604 0.11174448 -0.1466281
000120 10 e7 ce bc 60 93 9b 3b dc 1e 02 3e d2 56 26 3c
       -0.025256664 0.004747793 0.12707084 0.0101525355
000130 b9 31 88 bd 61 98 06 3e e1 d8 de 3d 09 bb 94 bd
       -0.06650109 0.13144065 0.1088121 -0.072622366
000140 b5 ad 05 be 64 64 6f 3d cc df 23 3d 2c 52 64 bd
       -0.13054545 0.05844535 0.04000835 -0.055742428
000150 bf f9 33 3e 62 ab 7f 3d 6b 90 13 be 60 44 1b be
       0.1757574 0.062419303 -0.1441056 -0.15162802
000160 5e 95 fc bd 37 b4 95 3d 46 83 73 3d f1 76 05 be
       -0.12333177 0.07309764 0.059451364 -0.13033654
000170 e4 cd 1e bd 60 c3 fb bd bc f8 b2 3c 18 df e5 3d
       -0.03877057 -0.12293124 0.021847121 0.112241924
000180 eb 11 92 bd d0 de 11 3e 25 17 98 bd e2 36 8c bd
       -0.07132324 0.14245152 -0.074262895 -0.068464056
000190 d9 d5 15 be b9 95 48 3d d1 d2 f4 3d 1c 93 07 be
       -0.14632358 0.04897091 0.119542725 -0.13239712
0001a0 c9 df 86 3c 04 e9 40 be ef 86 e2 bd 72 42 f4 bd
       0.016464131 -0.18838888 -0.11060893 -0.11926736
0001b0 0a ff 4e 3b 8b fd e7 3d 6a d4 55 be b1 68 38 3c
       0.003158512 0.11327656 -0.20881811 0.011255429
0001c0 43 f1 56 bb ed 77 08 3e 56 bb 3b bd e1 67 03 3e
       -0.0032797612 0.13326998 -0.045832954 0.12832595
0001d0 ae fb b4 bc 24 10 5a bd 95 3b 4c bc 9e 4f d3 bd
       -0.022092666 -0.05323805 -0.012465377 -0.1031792
0001e0 4e 76 a4 bd 2b ff f6 bd e9 b2 10 3e b3 4b a0 3d
       -0.08030377 -0.12060388 0.14130749 0.078269385
0001f0 6f 19 a5 3d a3 78 39 3d d8 92 02 3e 00 4f a8 3d
       0.08061492 0.045281064 0.12751329 0.08218193
000200 0a 81 99 bc 53 b7 27 be 0d 89 24 bd 3b b4 bb bd
       -0.018738288 -0.16378526 -0.040169764 -0.091652356
000210 8f 72 fb 3d 80 b4 ea 3c 79 3f 0b 3e 48 3c d0 be
       0.1227771 0.028650522 0.13598432 -0.4067099
000220 0e a9 8e 3d 4f 52 ca bd da 07 fa 3e 27 bc 08 3e
       0.069658384 -0.0987898 0.48834115 0.13353024
000230 a8 b0 9a 3d 3b 50 ba bd dd 7d f7 3d 48 e4 48 bd
       0.07553226 -0.09097334 0.120845534 -0.04904583
000240 20 4e 8c bd 83 f8 c4 bc 5d 64 b3 bd 58 f6 5e 3e
       -0.06850839 -0.02404428 -0.08759377 0.2177366
000250 32 12 02 3c 9c 3a ce bd 25 1e 1b bd fd 59 c8 bd
       0.007938908 -0.100697726 -0.037870545 -0.09782789
000260 03 bc 31 be c2 74 24 be 71 96 f4 3d c7 40 ba 3d
       -0.17356877 -0.16060165 0.11942757 0.090943865
000270 2c 8f 7a bd d8 b7 a6 3d 23 d1 c9 3d 7c 5c 9c 3d
       -0.061171696 0.08140534 0.09854343 0.076348275
000280 94 35 1e be 9f f3 20 be 3f 35 fd 3d 14 be 85 bd
       -0.15450126 -0.15717934 0.123636715 -0.06530395
000290 cc 7d fb 3d 90 bf 19 be ac fc 30 3e 8f 94 fc be
       0.12279853 -0.15014482 0.17283887 -0.4933209
0002a0 cf ac 35 be 31 93 24 3e fb 37 e0 3e c4 f9 56 bd
       -0.17741702 0.16071774 0.4379271 -0.05248429
0002b0 c6 57 d6 3d fe 32 93 bd 7d 52 8d bc 0d 8c bf bd
       0.1046596 -0.0718746 -0.017251248 -0.093528844
0002c0 92 3d aa bd 9e 83 e0 3d b8 09 c5 3d 8c 75 28 3e
       -0.08312525 0.10962604 0.09620994 0.1645109
0002d0 ab ba f6 bd e7 48 b4 bd 55 ad e8 3d 23 28 0b be
       -0.12047323 -0.088029675 0.113611855 -0.1358953
0002e0 3a bd dd 3d 54 16 00 be c1 0f 13 3e 6d 60 82 bc
       0.10827108 -0.12508518 0.14361478 -0.01591512
0002f0 03 ce c3 3b 89 c5 29 3e d4 aa 42 bd b8 b6 20 bd
       0.0059754862 0.1657926 -0.047526196 -0.039236754
000300 6e fe 80 bb 78 24 da bd 8f f5 39 3e e8 31 d6 bc
       -0.0039365804 -0.10651487 0.1816008 -0.026146844
000310 21 bc b0 3d 08 b7 f0 3d e3 c2 de bc b1 61 d1 be
       0.08629633 0.117536604 -0.027192539 -0.40894845
000320 78 48 46 3d 09 09 cc bd d0 ca ec 3e 04 7b 3c bb
       0.048408955 -0.09962661 0.46248484 -0.0028759846
000330 4c 7f 16 be 91 1e 19 be 72 30 04 3e 44 fe 7c bd
       -0.14696997 -0.14953066 0.12909105 -0.061765924
000340 cb 46 8c bd ee be d7 3d 88 b6 22 3d d1 80 74 3d
       -0.0684944 0.10534464 0.039724857 0.05969316
000350 c7 fb f9 bd 62 65 2f bd 1d 1f 16 3d e9 ec 4a bc
       -0.12206226 -0.042821296 0.036650766 -0.012385585
000360 4b af b7 3d 5a 6d c5 bd 41 e5 62 3d 23 25 10 be
       0.08968981 -0.09639998 0.055394415 -0.14076667
000370 e5 75 b3 3c 73 55 00 3e e5 a9 95 3d 2e 9e 9c 3c
       0.021906802 0.12532596 0.073077954 0.019118395
000380 09 b2 eb bd 4c 53 0c 3d d2 43 b6 bd c6 1e 6a 3e
       -0.11508567 0.034259126 -0.088996544 0.22863302
000390 18 f9 1c be bb 29 ef 3d 3f 21 f0 3d 13 7d 82 3e
       -0.15329397 0.11677881 0.11725091 0.2548605
0003a0 99 6d 48 3e f6 12 59 bd 8e d0 85 be 9a 2d 32 3d
       0.19573058 -0.0529966 -0.26135677 0.04350052
0003b0 6b 24 a6 bd 81 1f 35 3e d4 78 d6 3d a4 a2 3e bd
       -0.08112415 0.17687799 0.10472265 -0.046541825
0003c0 97 c9 f8 bd 10 d1 b0 bd db de 23 be bd 6b b6 bd
       -0.12147825 -0.086336255 -0.16002981 -0.08907268
0003d0 65 cc c4 3d dd c5 2e 3e ab f2 59 be ec 3d ee bd
       0.09609298 0.17067666 -0.21283977 -0.116329044
0003e0 7f 6a 57 bd ff 5b e7 3d 80 ec a9 3d 49 93 ec 3d
       -0.052591797 0.11296844 0.08297062 0.1155153
0003f0 96 9f 1d be d1 b4 24 be b0 5c e2 3d 37 9e 88 3d
       -0.15392908 -0.16084601 0.11052835 0.06670802

layers.2.bias f4 [32]
000000 11 37 40 3d 4c 14 df 3d 86 a2 ff 3d cf b3 fd 3b
       0.046927515 0.10892543 0.12482171 0.007742382
000010 fd d3 45 bd 02 66 e7 bd 5a a5 5b bd 21 b6 a4 3d
       -0.04829787 -0.11298753 -0.05362449 0.08042551
000020 18 bb 4b be 7d 91 b4 3d f0 3e 98 3d e2 ee 75 3d
       -0.1989559 0.08816812 0.074338794 0.06004227
000030 4c 57 92 bc 9b 08 e2 3c 07 31 8b 3d c4 e6 25 3e
       -0.017863892 0.027591994 0.067964606 0.16201311
000040 e4 45 03 3e 88 15 04 bc 02 18 3e be fb a7 bd bd
       0.1281963 -0.008061774 -0.18563846 -0.09260555
000050 12 d7 85 bd 37 f5 b2 3d 93 62 de 3b e9 2c 1a 3e
       -0.06535162 0.08738177 0.0067866533 0.15056194
000060 37 23 e2 3b d4 b5 e1 bc 1c c4 01 3e 94 86 47 bd
       0.0069011706 -0.027552523 0.12672466 -0.048712328
000070 08 e8 a7 3c e6 db fd 3d ad 47 20 3c cd 77 21 be
       0.020496383 0.12395458 0.009782714 -0.15768357

layers.5.weight f4 [16, 32]
000000 ee ba 4d bd 43 38 2d bd 4e 43 9d bd 40 72 15 3e
       -0.0502271 -0.042289983 -0.07678853 0.14594364
000010 6e c1 ab 3e 47 dd 34 bd ea b4 c1 3d 69 8c 5d be
       0.33546013 -0.04415634 0.09458335 -0.21635593
000020 af e0 61 bc f7 ba e1 3d ef 38 c0 bd c3 76 a8 3d
       -0.013786479 0.11021989 -0.09385859 0.08225777
000030 73 be 9c bd 14 f4 35 3e 4a fe 0e be 8f 88 35 be
       -0.07653513 0.1776889 -0.13964191 -0.17727874
000040 91 e6 94 3b 0d 8b 7e 3e b0 84 f4 bd e8 15 11 be
       0.004544087 0.24857731 -0.11939371 -0.14168513
000050 f5 f0 71 be 8e 43 11 be 94 59 c4 3d 97 18 cc bd
       -0.23627074 -0.14185926 0.09587398 -0.09965628
000060 08 05 90 3d 3d aa 8b bd 80 13 84 bc bb f4 cf bb
       0.0703221 -0.0681958 -0.01612258 -0.006346313
000070 47 d5 67 be 9f fa 19 be de 70 43 bd 32 1d 2f be
       -0.22639953 -0.1503701 -0.04771506 -0.17100981
000080 bf d4 57 be e2 96 3e be e9 74 09 3e 51 a6 1e bd
       -0.2107725 -0.18612245 0.13423504 -0.03873283
000090 b4 5e 45 be b8 dc 74 be 97 3f f5 bd bd a4 c5 3d
       -0.19274408 -0.23912323 -0.119750194 0.09650562
0000a0 42 46 14 3e 4e 85 38 be 08 6c cd 3c b3 8c ab bd
       0.14479926 -0.18019602 0.025075927 -0.083764456
0000b0 78 74 6a bd 5c e1 3a 3b 68 25 0e be 07 87 f1 3d
       -0.05723998 0.0028515672 -0.13881457 0.117933325
0000c0 eb 8a 1b 3e bf 03 41 3c 7d 6a 47 3e bf e3 e1 bc
       0.15189712 0.011780678 0.19474216 -0.027574418
0000d0 88 c0 28 3e 2a 9d d9 3c 68 81 b3 bd ef 91 99 bd
       0.16479695 0.0265642 -0.08764917 -0.07498538
0000e0 f2 41 12 3e fb a3 80 3e 79 bf e3 bc d5 93 25 bd
       0.14282969 0.25125107 -0.027801262 -0.040424187
0000f0 61 f0 79 3e e6 c2 32 be 22 32 26 3e 61 32 15 3e
       0.24408104 -0.1745716 0.16230062 0.1457
000100 bc a6 03 3d 52 5e bc bd 77 3d 24 3e b0 ad 82 bd
       0.032141432 -0.09197678 0.16039072 -0.063807845
000110 c1 c2 84 3e cf 3b 21 3e 98 b8 b5 3d 91 87 c6 bd
       0.25929835 0.15745471 0.08873099 -0.09693826
000120 a0 c4 e8 bd 2d 21 8f bc 10 68 9b bd cb be 8c 3c
       -0.11365628 -0.017471874 -0.07588208 0.01718082
000130 57 c4 da 3d 6a 2c 22 3c 1d 7f 21 3e bb 6f 3b be
       0.1068198 0.009898284 0.15771146 -0.1830434
000140 3c 6e 08 3c a0 21 8a 3e e0 2f 90 bb a9 c9 82 be
       0.008327063 0.2697878 -0.0044002384 -0.2554448
000150 ed e6 0e be 6c 11 aa be 81 f0 e2 3d fe 56 cb be
       -0.13955279 -0.33216417 0.11081029 -0.39714807
000160 65 b0 6d be bf c7 52 be e8 7d 1e be 38 39 1b 3e
       -0.2321182 -0.2058401 -0.15477717 0.15158546
000170 57 0e 26 be 7b 2d d6 be 40 32 b3 bd 1e b5 1a bb
       -0.16216408 -0.41831574 -0.08749819 -0.002360649
000180 b9 79 ed bc 67 f5 b1 bc 90 ca d5 bc 02 60 68 3d
       -0.028988706 -0.021723462 -0.026097566 0.056732185
000190 c5 8d c9 bd df 5d 11 be 46 7a 59 be 1a 34 11 3e
       -0.098414935 -0.14195965 -0.2123805 0.14180031
0001a0 ae d2 75 3e 6c 55 8e be c4 f4 82 3e 43 8f a4 bc
       0.24006149 -0.27799547 0.25577366 -0.020087844
0001b0 2a 37 d7 3d 70 59 7a 3d 3c 2d d9 3d 45 1c 92 3e
       0.105085686 0.06112045 0.10604331 0.28537193
0001c0 07 63 90 bc 9e 30 3b bc c3 8e 51 bd 79 90 4a 3e
       -0.017625345 -0.011425165 -0.05116154 0.19781674
0001d0 f2 29 82 3e d4 fa e4 3d 6a 09 02 bd c4 1d 82 3c
       0.25422627 0.11180654 -0.03174726 0.015883334
0001e0 e4 8a 76 3e e5 d4 7d 3e 64 d7 18 3d 39 ee 4d 3e
       0.2407642 0.24788244 0.037314788 0.20110406
0001f0 34 cb b0 3e de e8 24 3e f3 9a 82 3e 35 41 e9 3d
       0.34530032 0.16104457 0.25508842 0.113893904
000200 3d 07 5f 3d df 3e a6 bc f7 ee 97 bd 95 10 38 bc
       0.054450262 -0.020293651 -0.07418626 -0.011234422
000210 68 fb 18 3d 95 46 b4 3e 89 7b 69 3e 75 60 16 be
       0.037349135 0.352101 0.22801031 -0.14685233
000220 bb 00 03 bc 48 ee 17 3e 81 7a 9f be 1d bf 22 3e
       -0.00799578 0.14836991 -0.3114815 0.15893216
000230 a4 02 f5 bd 42 3b 60 bd 0f 90 70 3e cf 39 9e be
       -0.11963394 -0.054744013 0.23492454 -0.3090348
000240 5f ac 50 be 94 c9 89 3b f6 dc 3e be 71 7a 95 3c
       -0.20378254 0.004204938 -0.18638977 0.018246861
000250 dd c2 7b be d5 8c 0e be 41 25 14 be 0e 3c b8 be
       -0.24586053 -0.1392091 -0.14467336 -0.35983318
000260 66 53 20 bd b4 85 5a be 06 d7 90 3c 04 ae a6 3c
       -0.039142035 -0.21340066 0.017680656 0.020346649
000270 de ce 5d be 49 48 bd bd ad 8b 49 bd 90 ad 9f 3d
       -0.21660945 -0.09242303 -0.04920547 0.07796776
000280 f3 28 fe bc d9 ce c3 3c dc ba 2d 3e d3 83 6c 3e
       -0.031025385 0.023902344 0.16965812 0.23097162
000290 0e fe 1e be 5a 9f f6 bd 21 1b 90 be ee ad ba 3d
       -0.15526602 -0.12042113 -0.28145698 0.09115206
0002a0 5b 5c 31 be 31 60 ef 3d 1f 64 98 3e 18 5b d6 bd
       -0.17320387 0.11688269 0.29763886 -0.104665935
0002b0 53 f2 e0 bc 0a 27 4d bc 9f 54 cf bd 15 fa 8c 3e
       -0.0274593 -0.012521515 -0.10123562 0.27534547
0002c0 45 ce d4 bc 22 14 b0 bd 2d 9f 65 bb 26 9f b6 bc
       -0.025977263 -0.0859759 -0.0035037503 -0.022292685
0002d0 8d 7d a3 3b db 47 e6 bd 6a c5 fe bd 21 43 8c 3e
       0.004989332 -0.11244174 -0.124399975 0.27394965
0002e0 83 06 f1 3d 92 d0 75 bd c8 78 b4 3d 2b 99 b9 bd
       0.1176882 -0.06001336 0.088121 -0.090624176
0002f0 9c bf 74 3e 56 18 25 3e a0 1a ea 3d cd 7f 60 bd
       0.23901218 0.16122565 0.114308596 -0.05480938
000300 4d ff 49 bd e6 4e d0 3c 8a 1b f7 3d 6a a4 35 3e
       -0.04931574 0.025428247 0.120657995 0.177385
000310 fd 13 ec bd 12 e0 46 be 2c ed a2 be 67 2b 5a 3e
       -0.1152725 -0.19421414 -0.31821573 0.21305619
000320 8e 2d 6f 3e c9 12 40 be 07 c6 9c 3e 1e d1 48 be
       0.23357221 -0.18757166 0.30619833 -0.19611022
000330 70 4a ea bd e1 1a df 3d a5 da 46 be a5 b8 c2 bc
       -0.11439979 0.108937986 -0.19419344 -0.023769686
000340 e9 c1 84 3e 50 74 cc bd f1 07 1e 3e b2 ce 44 3b
       0.25929192 -0.09983122 0.15432717 0.0030030427
000350 1c 1a 9a 3e 2b 00 e8 3d 18 35 3d 3e 83 c6 85 3e
       0.30098045 0.11328157 0.18477285 0.26128015
000360 89 a4 4a 3e 01 97 8f 3d 83 cd 9c 3e cc 2d 41 bd
       0.19789328 0.070112236 0.30625543 -0.047162816
000370 30 a6 50 3d ab b1 72 3e dc ea 12 3e 34 f0 01 3d
       0.05093974 0.23700587 0.14347404 0.031723216
000380 ef a6 06 be e7 c7 30 3e 19 21 7e bb 9e c8 2c bd
       -0.13149618 0.17263757 -0.0038777052 -0.04218351
000390 30 42 41 3c f1 9f 30 be 5f 2c 9a bd 5f d3 81 3e
       0.0117955655 -0.17248513 -0.07527994 0.25356576
0003a0 f9 da 76 3e 42 52 8d be 86 45 41 3e d0 0a ef bd
       0.24106969 -0.2760182 0.18874177 -0.11671984
0003b0 77 7a 84 3d bf 67 a5 3d a4 96 b4 bd b1 80 b7 bc
       0.06468671 0.080764286 -0.08817795 -0.022400232
0003c0 d8 50 6d 3e 61 e7 9e 3d a6 c3 48 bc 78 55 97 3e
       0.2317537 0.07758976 -0.0122536775 0.29557395
0003d0 c8 e6 35 3e fb cd 30 3e 66 a5 38 bd 9b a5 e6 bc
       0.17763817 0.17266075 -0.04507961 -0.028155139
0003e0 c6 5c 63 3e 83 a3 1d 3c df c1 c7 3d 74 99 1a 3e
       0.22203359 0.009621504 0.09753775 0.150976
0003f0 b1 70 0f 3e df 8d b9 3d 0c be 7b 3e 63 c4 0f 3e
       0.14007832 0.09060263 0.24584216 0.1403976

layers.5.bias f4 [16]
000000 52 86 92 3d 87 f1 38 3c a9 03 e1 3d 05 a0 15 3d
       0.07154526 0.011288053 0.10987026 0.03652956
000010 8a fe 4a 3e f7 ac eb 3c b4 a0 98 3c 98 f9 9d bd
       0.19823661 0.028769 0.018631317 -0.07713622
000020 ad 10 15 3d e3 59 07 3d ae 0e da 3d fc 5b a3 3d
       0.036392856 0.033044707 0.10647331 0.07976529
000030 8d 3e 4e bd 76 d1 59 3d 5e fe 57 3d 7a 21 fe bc
       -0.05035262 0.053178273 0.052732818 -0.031021822

layers.7.weight f4 [2, 16]
000000 a9 6b 11 be a1 bd 9a 3d 00 74 3c be 49 8a 5c 3e
       -0.14201225 0.075557 -0.18403625 0.21537127
000010 1c 51 8a be 98 cf 12 3e 04 16 4f bc ea e2 91 3e
       -0.27015007 0.14337003 -0.012639526 0.28493434
000020 bb fa 83 3d c5 3b ca be f4 5e 40 be 83 f8 1f be
       0.064443074 -0.39498726 -0.18786222 -0.15622143
000030 b2 ca ed bd c3 75 9f be f4 a6 ac bd 09 86 80 be
       -0.11610927 -0.31144533 -0.08430281 -0.2510226
000040 18 f5 f0 3d 20 01 9d be ac 87 94 3e 60 37 3b be
       0.11765498 -0.3066492 0.2900976 -0.18282843
000050 4a 8c 64 3e f2 f9 9c be 35 63 97 be 34 72 59 be
       0.22319141 -0.30659443 -0.29567876 -0.21234971
000060 0c 86 a9 be d6 5e a5 3e 63 d9 9c 3e b6 8e ee 3b
       -0.33110082 0.32298917 0.30634603 0.007280196
000070 ce f4 51 3e 47 fc 31 3e f6 eb aa 3e 1c bd aa 3d
       0.20503542 0.17381392 0.3338315 0.08336851

layers.7.bias f4 [2]
000000 15 64 20 3e 33 bc b4 3d
       0.15663178 0.08824959

exp_avg f4 [32, 97]
000000 a9 1c 07 bb 5a 84 f0 b9 f3 a1 9b 38 e6 d3 a4 ba
       -0.0020616448 -0.00045874977 7.421141e-05 -0.0012575358
000010 43 ce 17 bb 00 00 00 00 1d ad 9d 3a 8c 4a 6d ba
       -0.0023163713 0.0 0.0012029741 -0.0009051941
000020 ae 32 8a bb 42 9a 05 3b 58 ab d8 39 32 d8 9a b9
       -0.0042174673 0.0020386134 0.00041326392 -0.00029534247
000030 be 39 38 3a cf 35 84 37 9a 5a 23 bb 52 84 69 b9
       0.0007027647 1.5760683e-05 -0.002492583 -0.00022269905
000040 e5 21 ec ba aa 65 cd 3a ae 31 8e 39 7d 88 05 bb
       -0.0018015472 0.0015670557 0.00027121365 -0.0020375543
000050 44 de 5c 38 49 54 81 b4 c3 58 5b b7 84 46 ac 36
       5.265909e-05 -2.4089448e-07 -1.3074084e-05 5.1342085e-06
000060 c3 b7 38 37 5c ff f3 38 0c 7b c7 b8 10 1c 74 b6
       1.101004e-05 0.00011634707 -9.511979e-05 -3.6375168e-06
000070 1e c0 0b 38 c1 0b 8a b8 1c 09 27 38 08 3c 94 37
       3.3319106e-05 -6.582542e-05 3.9824386e-05 1.7670929e-05
000080 88 bd 95 35 98 e7 d2 35 5b a0 62 27 84 d7 7d 39
       1.1156526e-06 1.5713622e-06 3.145073e-15 0.00024208246
000090 22 c4 e8 b7 0f 50 55 38 bb 26 a0 b9 b0 50 11 ba
       -2.7747887e-05 5.0857718e-05 -0.00030546435 -0.00055433344
0000a0 72 f9 d8 b7 d9 42 32 2e dc db 6c 3a c3 f5 07 37
       -2.5865364e-05 4.0531887e-11 0.0009035447 8.103848e-06
0000b0 17 7b 86 38 d8 fd 80 b6 b6 77 a5 36 a7 63 87 b8
       6.412545e-05 -3.8442486e-06 4.9313194e-06 -6.455863e-05
0000c0 6c fc 2f 36 4f e9 26 b9 a5 3b 3e 37 ee ad 57 39
       2.622396e-06 -0.00015917908 1.133877e-05 0.00020568792
0000d0 88 fb cd b5 5b b1 bc b7 e0 59 c2 37 97 3e 9c b9
       -1.5346895e-06 -2.2493934e-05 2.3168453e-05 -0.00029801272
0000e0 25 ec d5 39 87 f5 29 b6 65 d1 e6 b7 f9 c9 2c 34
       0.00040802467 -2.5325878e-06 -2.7515644e-05 1.6092226e-07
0000f0 12 a7 9f 8b 26 19 09 34 1b 5b 36 37 4f ec 4e 31
       -6.149595e-32 1.2768268e-07 1.08692575e-05 3.0111271e-09
000100 2a 65 48 37 c4 0b f8 38 e6 ab 3e b7 20 42 10 b9
       1.1944483e-05 0.00011827753 -1.1364906e-05 -0.00013757544
000110 f0 48 99 35 5c d7 a5 b8 33 c1 55 36 a7 3c b7 37
       1.1420616e-06 -7.907927e-05 3.185193e-06 2.1843543e-05
000120 a8 2e 5a 39 00 56 87 b9 ce 8a 85 bb 8e 8f 47 b9
       0.00020807481 -0.00025813282 -0.0040753847 -0.00019031597
000130 ca c7 6a 3b 68 b8 c5 b8 a6 0d da b5 fb 75 13 b7
       0.003582465 -9.42804e-05 -1.6246238e-06 -8.789352e-06
000140 e1 64 07 b7 5d 6b 94 35 44 c5 61 b9 16 86 b2 ba
       -8.070115e-06 1.1058106e-06 -0.0002153116 -0.0013620283
000150 ae 35 8a 33 f2 fa d3 b7 13 3f 11 b7 0a ce 14 26
       6.43589e-08 -2.5270016e-05 -8.657359e-06 5.162705e-16
000160 fb 4a 7d 35 d5 53 f1 33 71 e2 6d b7 8a 1c 82 37
       9.4358955e-07 1.1237686e-07 -1.4179023e-05 1.5510497e-05
000170 e7 20 b3 b5 e2 0f 6d b7 9a 9a 7a b5 2c 7d 3e bb
       -1.3346115e-06 -1.4129999e-05 -9.335723e-07 -0.0029066307
000180 2f 65 ac bc dc ed 57 bb b2 57 9d b9 9e 2a 24 39
       -0.021044342 -0.0032948172 -0.00030010712 0.00015656135
000190 28 26 3e 3a 40 12 20 bb 04 00 00 80 47 0c 03 bb
       0.00072536105 -0.002442494 -6e-45 -0.0019996332
0001a0 30 9d ec 39 2c 52 90 bb 6c 31 cd 39 63 e6 39 b9
       0.00045130542 -0.004404327 0.0003913747 -0.000177288
0001b0 74 9c a0 39 5f bf ca b8 56 1f 8a ba 0e b5 82 3a
       0.00030634145 -9.667756e-05 -0.0010537903 0.0009972171
0001c0 4a f0 91 bb 9a 4d 20 3a 94 f7 22 bb 17 61 95 ba
       -0.0044536935 0.0006115079 -0.0024866806 -0.0011396733
0001d0 8e e7 ba ba 92 22 80 b8 c8 04 84 b6 63 7e 06 b9
       -0.0014259683 -6.109955e-05 -3.934463e-06 -0.00012826319
0001e0 10 ef 6e b7 c4 44 8d 38 ed 31 c1 38 82 51 14 b9
       -1.42415665e-05 6.7362125e-05 9.2122566e-05 -0.00014144744
0001f0 d9 f8 ab b6 1e ba a8 b7 09 89 3c b8 03 b2 a3 b7
       -5.125167e-06 -2.0113828e-05 -4.4950317e-05 -1.9514007e-05
000200 61 79 fc 37 2a 7f 98 b4 39 7e c4 b6 80 57 60 28
       3.0097262e-05 -2.840473e-07 -5.8559494e-06 1.2453471e-14
000210 84 8c be 39 e4 f9 f4 b7 07 89 3e 38 6d 91 cc b9
       0.00036344316 -2.9203431e-05 4.5427147e-05 -0.00039018263
000220 73 28 65 ba 1a 43 56 37 48 9b 0b ad 6d d4 c9 38
       -0.0008741684 1.2771017e-05 -7.935715e-12 9.623994e-05
000230 e9 6b 52 b8 0a c4 4f 38 8a ab 34 b8 48 26 a2 b7
       -5.01684e-05 4.953522e-05 -4.3075102e-05 -1.9329731e-05
000240 88 42 b2 b8 cb e2 b4 b5 2c 59 15 b9 b8 1b 99 b8
       -8.500094e-05 -1.347705e-06 -0.00014242966 -7.3007715e-05
000250 ae 14 65 38 8b cb 4c b4 f4 55 05 38 87 71 e6 b5
       5.4617114e-05 -1.9073029e-07 3.178972e-05 -1.7169376e-06
000260 48 85 ea b8 dc d1 25 3a c2 64 51 b7 bc 9d 1e b7
       -0.00011182815 0.0006325522 -1.248083e-05 -9.454259e-06
000270 0a b1 7b b4 fa e1 35 8b 9d a4 01 b7 91 c3 8e b7
       -2.3440603e-07 -3.5029338e-32 -7.727326e-06 -1.7018787e-05
000280 f2 53 da af bb 44 45 b7 17 c3 ba b8 d2 f0 9a b7
       -3.9713616e-10 -1.1758118e-05 -8.9055095e-05 -1.8470371e-05
000290 ba 02 9f 38 29 8c 84 b7 31 1b 88 b7 6c 02 86 b7
       7.582219e-05 -1.5800893e-05 -1.6225125e-05 -1.5975173e-05
0002a0 44 66 79 37 b7 3f 5b 39 e7 ea 8b 38 1e 24 d8 ba
       1.4865367e-05 0.00020909203 6.6717905e-05 -0.0016490256
0002b0 83 d8 7c ba d3 b4 ad 3a 00 e0 b4 b8 1c 21 9d b7
       -0.00096453 0.0013252742 -8.624792e-05 -1.8731276e-05
0002c0 52 f5 86 b8 18 34 cd b6 a9 ea 81 b6 3f 14 a2 b9
       -6.4353124e-05 -6.1155406e-06 -3.8718176e-06 -0.00030914132
0002d0 f9 8d d5 ba ce 42 18 b6 4a b4 1a b8 c8 38 3a 38
       -0.0016292922 -2.268865e-06 -3.688437e-05 4.4398737e-05
0002e0 75 77 a0 a7 2d a8 01 b8 3a db 17 b4 1f 57 1a ba
       -4.4538437e-15 -3.0912623e-05 -1.4142725e-07 -0.0005887616
0002f0 96 ee 89 b6 a4 03 28 b7 86 0f 9c 37 d5 c9 09 b5
       -4.110693e-06 -1.0014428e-05 1.8603878e-05 -5.133018e-07
000300 8c bb 49 bd a4 0f 2d bd 20 6b 2a 39 de e2 86 b8
       -0.049251124 -0.042251244 0.0001625237 -6.431875e-05
000310 f4 37 46 b7 de 0b 83 ba 90 08 20 3b 04 00 00 00
       -1.1814747e-05 -0.0009998044 0.0024419166 6e-45
000320 60 e6 48 b8 dd 34 19 bb de 47 50 3b de 87 cf ba
       -4.789827e-05 -0.0023377456 0.0031781117 -0.0015833338
000330 29 e1 a8 38 c4 65 c3 38 56 27 ff b9 55 21 8c 3a
       8.0528036e-05 9.31728e-05 -0.00048666698 0.0010691086
000340 e1 e4 dd ba 40 7c bf 3a a2 5b 0a ba 7c be 1d 3a
       -0.0016929173 0.0014609173 -0.00052779366 0.0006017459
000350 28 62 26 b8 61 5c 15 ba 97 df 51 3a 32 c9 a7 36
       -3.96689e-05 -0.00056976645 0.0008006035 5.00041e-06
000360 7f d0 26 39 ff 92 5f 37 3a 01 14 b7 4f 94 f4 b8
       0.00015908664 1.3326061e-05 -8.821773e-06 -0.00011662451
000370 18 7e 0e 39 9f 27 b1 36 6e 69 40 b7 38 8c ec 38
       0.00013589149 5.2796236e-06 -1.1468639e-05 0.00011279475
000380 b1 b0 b0 37 25 c9 2e b8 85 d7 cb 35 cc 04 55 36
       2.1063113e-05 -4.1672163e-05 1.5187403e-06 3.1742265e-06
000390 e2 22 25 a8 7d 41 1e ba cd 86 21 38 a9 e6 a1 b8
       -9.166904e-15 -0.000603698 3.8510934e-05 -7.720042e-05
0003a0 ee 12 9a 39 ec 44 5d 3a 33 ff 0a 37 55 62 d2 ae
       0.00029387273 0.0008440751 8.284859e-06 -9.5671616e-11
0003b0 82 c7 ea b9 4d fb a1 38 92 81 fa 37 3d d3 13 38
       -0.00044780603 7.723887e-05 2.9862658e-05 3.5244262e-05
0003c0 8e 8d d2 37 7a 2b 7a 38 81 68 87 37 34 a4 25 38
       2.5099867e-05 5.9645135e-05 1.6141918e-05 3.949199e-05
0003d0 a2 2c b7 38 53 4f 50 39 4d 2c 23 35 4d a0 66 b7
       8.7344335e-05 0.00019865976 6.07867e-07 -1.3746391e-05
0003e0 63 b6 b9 b7 d1 61 71 39 fb 81 43 b8 5c 71 e0 36
       -2.2138649e-05 0.0002301999 -4.6612677e-05 6.688917e-06
0003f0 cf e9 d2 37 81 09 79 34 f7 01 31 06 ab 36 c2 36
       2.5142826e-05 2.319339e-07 3.3291444e-35 5.7880147e-06

exp_avg_sq f4 [32, 97]
000000 52 41 07 38 3f 46 46 35 c4 0d 6e 34 d5 25 3f 36
       3.2247342e-05 7.386297e-07 2.2170485e-07 2.848324e-06
000010 f9 01 b9 37 00 00 00 00 14 46 a9 37 4c 45 99 36
       2.2054637e-05 0.0 2.0179003e-05 4.5678225e-06
000020 88 d5 b0 37 3a 3f 3c 37 78 77 40 36 48 7c fe 36
       2.1080268e-05 1.1220394e-05 2.867977e-06 7.584258e-06
000030 87 d6 15 37 35 c5 31 36 d2 0a d2 37 14 4c c1 37
       8.931041e-06 2.6489845e-06 2.503899e-05 2.304282e-05
000040 dc 32 66 37 72 df a1 37 d2 a6 44 37 bb 04 50 37
       1.372091e-05 1.9296745e-05 1.1721351e-05 1.23988675e-05
000050 f1 af 7e 36 96 ad 59 31 51 22 da 33 89 5a 5f 32
       3.795136e-06 3.1676328e-09 1.0157658e-07 1.3000894e-08
000060 9e 8f 65 34 a4 9d c3 34 53 c1 bd 34 13 64 2f 33
       2.1379535e-07 3.643628e-07 3.5344655e-07 4.083638e-08
000070 01 3f 8a 32 6c dc 65 34 6a 31 17 33 66 69 fc 32
       1.6093965e-08 2.1407476e-07 3.520237e-08 2.938459e-08
000080 1b 75 82 32 8b 12 ec 32 e0 7e fa 31 6e da 58 36
       1.5187245e-08 2.7482448e-08 7.2903816e-09 3.231365e-06
000090 12 e7 4c 34 72 5c 95 33 1b 57 88 35 c6 e0 df 35
       1.9083043e-07 6.955169e-08 1.0158141e-06 1.6680212e-06
0000a0 60 e3 1f 32 05 2d e2 30 de 49 4e 36 84 d1 de 34
       9.306717e-09 1.645646e-09 3.0739388e-06 4.1503165e-07
0000b0 b3 ed e7 34 c1 e2 0a 34 c5 f9 07 33 d4 a3 8f 34
       4.3200052e-07 1.2934744e-07 3.16593e-08 2.6755026e-07
0000c0 c7 57 1c 33 d8 08 f3 34 13 ae 7c 33 86 74 21 35
       3.6401413e-08 4.5268712e-07 5.8831642e-08 6.014674e-07
0000d0 31 45 9a 33 1c c2 00 33 17 2c 93 34 6e 25 2d 35
       7.18377e-08 2.9978864e-08 2.7412963e-07 6.450199e-07
0000e0 86 4f 9e 34 32 f7 b6 32 0c c6 14 33 57 8b bb 31
       2.9487654e-07 2.13e-08 3.4639058e-08 5.4582574e-09
0000f0 59 a6 2d 30 06 6b b1 30 19 ea a4 32 3d d2 92 31
       6.317343e-10 1.2908863e-09 1.9198568e-08 4.2730606e-09
000100 a8 fd 35 33 45 3a 52 36 d2 10 51 32 40 45 e2 34
       4.2373046e-08 3.1326356e-06 1.2169226e-08 4.2146166e-07
000110 8c c4 aa 33 e0 51 32 34 3e f9 5d 31 6c 62 09 34
       7.9519936e-08 1.6607328e-07 3.230141e-09 1.2794925e-07
000120 18 95 28 35 33 f3 d0 35 fa 5e 7a 37 41 8e ca 36
       6.2801837e-07 1.5567988e-06 1.4923275e-05 6.0366297e-06
000130 cf 51 07 37 cd bf 1d 35 53 d2 09 33 85 1a 1f 34
       8.065675e-06 5.8766165e-07 3.2089087e-08 1.4817677e-07
000140 f2 fe 3f 33 d8 b3 96 32 82 01 cd 34 09 44 12 37
       4.4702524e-08 1.7544082e-08 3.8185323e-07 8.718119e-06
000150 03 4a ae 31 f7 96 30 33 1a 1d dc 32 14 12 30 31
       5.0724807e-09 4.1115495e-08 2.5624605e-08 2.5621647e-09
000160 0f 96 07 33 ad ea 81 2d 43 b0 c9 34 64 bc 63 32
       3.1568614e-08 1.4769819e-11 3.7567415e-07 1.3255974e-08
000170 8b 98 81 32 7d bd 88 33 5f ff 96 31 ce f9 77 3c
       1.5086945e-08 6.367461e-08 4.394607e-09 0.015135242
000180 fb 6d 55 3b b0 aa 45 38 97 d5 91 35 cd 8e b1 34
       0.0032566774 4.7127425e-05 1.0865505e-06 3.307272e-07
000190 bb 48 ae 36 37 96 ff 37 d9 95 ef 2c d8 45 c7 37
       5.194071e-06 3.0468318e-05 6.809425e-12 2.3755172e-05
0001a0 21 70 0c 37 f5 90 f8 37 66 86 56 37 14 0b c9 35
       8.370757e-06 2.9631405e-05 1.2786686e-05 1.4978891e-06
0001b0 33 f5 01 37 d5 9e 8c 37 1e 8b c5 36 3c 72 f8 37
       7.746089e-06 1.6763262e-05 5.887253e-06 2.9617098e-05
0001c0 cb 3d 10 38 9f 43 a3 37 ef 77 d4 37 bc 27 a7 37
       3.4389825e-05 1.9462603e-05 2.5328218e-05 1.9926454e-05
0001d0 4c a5 9a 37 50 e2 84 36 cb 33 e6 31 90 97 70 34
       1.8435203e-05 3.960253e-06 6.699769e-09 2.240688e-07
0001e0 e7 ce ed 31 ac 4d 4b 34 6c 52 2c 35 53 83 cb 34
       6.92113e-09 1.8934105e-07 6.419493e-07 3.7907247e-07
0001f0 83 a3 84 33 eb d8 d1 32 89 4c cc 33 1a 52 cd 32
       6.1764716e-08 2.4429445e-08 9.513412e-08 2.3902476e-08
000200 d3 6e 42 33 29 b0 bf 32 88 73 40 33 7f 35 9e 32
       4.526994e-08 2.2315435e-08 4.480856e-08 1.8417948e-08
000210 8d 15 49 36 98 55 99 34 6d 9a df 33 cc eb be 35
       2.9963878e-06 2.8560748e-07 1.04123366e-07 1.4224729e-06
000220 d1 85 0e 36 ff 1f ef 32 9d 87 7e 31 5c f9 e0 36
       2.123754e-06 2.7837812e-08 3.7038952e-09 6.7047495e-06
000230 de 62 8d 34 73 e3 a9 35 07 66 bb 33 67 03 28 33
       2.6335232e-07 1.2657678e-06 8.726425e-08 3.9118643e-08
000240 fa 44 f3 34 ca a8 11 33 13 6d fd 34 3b f7 b3 33
       4.5312464e-07 3.3913956e-08 4.7204284e-07 8.380308e-08
000250 de b6 77 35 ef ed bf 33 19 d0 99 33 8d da 43 34
       9.2280777e-07 8.9374105e-08 7.1624704e-08 1.8240299e-07
000260 bc fa 0a 35 e9 8d 19 35 c4 7b a7 33 9b 78 79 33
       5.177387e-07 5.720345e-07 7.799056e-08 5.808452e-08
000270 3b 5f df 31 c6 b6 8e 2f 0a 4c 02 32 e0 0f 42 32
       6.5009806e-09 2.5959518e-10 7.584285e-09 1.1295896e-08
000280 e9 16 d1 31 b7 71 51 33 3d 1e 20 36 53 40 4f 32
       6.085305e-09 4.8765028e-08 2.385946e-06 1.2063611e-08
000290 95 84 da 34 de e2 32 34 22 ab 33 34 0b be 12 32
       4.070213e-07 1.6660076e-07 1.6732932e-07 8.541529e-09
0002a0 c8 2b ef 33 2c d8 3e 35 ec 71 50 35 52 ed a3 37
       1.11372685e-07 7.1095087e-07 7.7651816e-07 1.9541625e-05
0002b0 79 98 1f 37 d0 cb 34 37 94 96 0b 35 d7 b9 3e 33
       9.512639e-06 1.077629e-05 5.2000655e-07 4.4406843e-08
0002c0 50 2d 70 34 92 10 fd 32 1b ba 05 33 84 f0 3d 35
       2.2368226e-07 2.9460612e-08 3.1135738e-08 7.0757983e-07
0002d0 d9 70 88 37 0c c1 2d 32 cc 21 c7 33 06 d8 4e 33
       1.6265012e-05 1.0113819e-08 9.272807e-08 4.8159585e-08
0002e0 b1 23 c8 31 a7 ea 5e 33 34 32 24 2e 44 59 ea 35
       5.8248237e-09 5.1901818e-08 3.7333872e-11 1.7460338e-06
0002f0 57 36 07 33 d5 66 6a 32 8d 46 7a 33 a9 dc 12 32
       3.148156e-08 1.3643974e-08 5.8271826e-08 8.548491e-09
000300 32 a2 87 3c 93 0d 93 3b 03 fb 88 38 cd 1d c1 35
       0.016556833 0.004487702 6.53174e-05 1.4388294e-06
000310 38 54 f5 34 94 00 d0 36 28 0f 14 38 39 94 9f 2c
       4.5696083e-07 6.1989504e-06 3.5300065e-05 4.535508e-12
000320 de 32 16 38 d2 7f 09 37 c6 2f 35 38 78 b8 42 37
       3.581016e-05 8.195597e-06 4.3198255e-05 1.1606251e-05
000330 02 14 22 36 c8 25 54 37 4d fe b9 37 01 7e 54 37
       2.4151527e-06 1.2644981e-05 2.2172137e-05 1.2665522e-05
000340 01 ed 6f 38 2e bd db 37 e0 17 03 38 aa dd 10 38
       5.7202767e-05 2.6194928e-05 3.125507e-05 3.4538716e-05
000350 9e 1d aa 37 54 f6 cc 37 7b 0f d0 36 98 06 86 32
       2.027937e-05 2.44334e-05 6.200685e-06 1.5602652e-08
000360 41 80 04 35 87 a7 de 32 21 2d 97 34 ff 07 87 35
       4.9360466e-07 2.5920384e-08 2.8158777e-07 1.0060611e-06
000370 0d 33 12 35 a8 28 f5 33 f8 78 50 33 f8 00 93 34
       5.4463527e-07 1.1416097e-07 4.8538794e-08 2.7381589e-07
000380 be 83 7d 33 5e 33 9a 33 10 55 ec 32 d6 43 bc 33
       5.902597e-08 7.1805275e-08 2.7512698e-08 8.7667715e-08
000390 20 96 81 32 a0 fc 06 37 8b 91 9d 34 04 0f ea 33
       1.5085845e-08 8.045841e-06 2.9349425e-07 1.08992054e-07
0003a0 01 9e e6 35 1d d4 37 36 14 c2 cb 32 2f cf d3 30
       1.718232e-06 2.7392591e-06 2.3720567e-08 1.5411156e-09
0003b0 15 d8 af 36 ed d7 10 35 c8 c1 1e 36 48 b3 8a 34
       5.2405617e-06 5.3958394e-07 2.365663e-06 2.5834947e-07
0003c0 c3 b3 b8 33 35 0f 2a 35 b1 90 89 33 4f 32 18 35
       8.600866e-08 6.3352064e-07 6.405879e-08 5.669762e-07
0003d0 48 ae 4c 34 d3 da 1d 36 02 cb 16 34 92 a2 c0 33
       1.9062384e-07 2.3522196e-06 1.4043692e-07 8.970268e-08
0003e0 2a 61 34 35 22 0c 61 35 70 f6 bb 34 d6 2e 9e 33
       6.719662e-07 8.383669e-07 3.501077e-07 7.365968e-08
0003f0 07 2c ea 33 72 11 6a 32 37 9d 46 30 32 ab 42 32
       1.0904483e-07 1.3624559e-08 7.2255396e-10 1.13312115e-08

exp_avg f4 [32]
000000 03 dc 02 bb d8 f5 96 bb 98 bb b7 39 da 80 4d 3b
       -0.0019967563 -0.0046069436 0.00035044248 0.003135732
000010 66 b5 8a 3b 37 e6 a0 3a 6a 6e ec b9 75 4c 76 3c
       0.00423305 0.0012275641 -0.00045095693 0.015032877
000020 97 1b 92 ba 10 df 4e bb 5f e1 29 3c 40 06 66 38
       -0.0011147138 -0.003156606 0.010368674 5.4842094e-05
000030 56 ad 02 3b 18 b3 34 3a 8c 57 da b9 60 b5 3f ba
       0.0019939742 0.0006893142 -0.00041645428 -0.0007313099
000040 fb 4e b6 ba 50 90 f5 ba 76 c2 8e bb 0c 6c b9 bb
       -0.0013909036 -0.0018735025 -0.0043566776 -0.005658632
000050 25 f3 35 bb 3a c6 98 bb 72 62 1f 3b 06 cf da ba
       -0.0027763334 -0.0046623023 0.0024320153 -0.0016693778
000060 df ae c4 39 40 15 b9 bb 7b 0d 77 3b b6 ab b1 ba
       0.00037514322 -0.005648285 0.0037697244 -0.0013555202
000070 94 44 e0 ba 59 d0 aa ba 81 90 ab 3b 52 96 bc 3b
       -0.0017110282 -0.0013032063 0.005235732 0.0057552243

exp_avg_sq f4 [32]
000000 72 64 79 38 96 2c b3 38 2b 86 fa 38 47 ae e1 38
       5.9459773e-05 8.54369e-05 0.0001194592 0.00010761298
000010 fa d3 91 38 3d 51 c4 38 ca 95 76 38 1f cb cf 3a
       6.9536225e-05 9.36114e-05 5.8790472e-05 0.0015853381
000020 f6 b1 13 38 b4 02 05 38 60 2f 14 3b 56 d0 46 39
       3.521327e-05 3.171219e-05 0.0022611246 0.00018960363
000030 b0 de b6 38 87 7a 80 38 c9 07 b9 38 11 39 04 39
       8.719915e-05 6.126338e-05 8.8229375e-05 0.0001260976
000040 db 92 0b 38 30 f6 05 39 c3 3d 84 39 44 63 ed 39
       3.3276952e-05 0.0001277558 0.00025223018 0.0004527812
000050 39 8a 9c 38 54 c0 54 39 af 06 95 38 8d ae 33 38
       7.464406e-05 0.00020289543 7.1061186e-05 4.283949e-05
000060 6a c5 c7 37 c4 63 ba 38 1b 3a c0 38 a7 bd d4 38
       2.3814577e-05 8.887754e-05 9.1660964e-05 0.00010144273
000070 a0 e6 58 38 a2 54 85 38 ae 99 aa 38 ca 0d 42 39
       5.17132e-05 6.357698e-05 8.134857e-05 0.00018506419

exp_avg f4 [32, 32]
000000 88 f9 36 bb 12 48 29 bb e0 10 2b b9 66 05 09 bb
       -0.0027919728 -0.002583031 -0.00016314117 -0.0020907759
000010 b0 4f 82 ba 54 0b 02 bb c0 30 30 bb b4 c4 e8 39
       -0.0009941962 -0.0019843178 -0.0026884526 0.00044397044
000020 97 a8 20 b9 6c 96 22 ba 3a 94 ab 39 88 c4 08 b9
       -0.00015321594 -0.0006202224 0.000327261 -0.00013043184
000030 e5 9f 58 bb e0 97 33 bb 87 9c 3a bb a6 ab a5 ba
       -0.003305429 -0.0027403757 -0.0028474645 -0.0012639656
000040 dd 6b 12 bb 80 b5 a0 39 22 3d 49 ba b6 d4 c2 39
       -0.0022342124 0.00030652806 -0.0007676651 0.00037161045
000050 53 a3 eb ba 81 de 11 3b 90 6c 23 38 ac 20 43 3a
       -0.0017977752 0.0022257867 3.8963335e-05 0.0007443528
000060 36 7e b4 ba 7e 08 2b bb ea f5 86 ba d4 ee 5c 3a
       -0.0013770524 -0.002609759 -0.0010296677 0.0008427922
000070 e5 44 cf bb 6b 62 22 bb e4 d0 be ba 4d 7d fd ba
       -0.0063253515 -0.00247779 -0.0014558104 -0.0019339711
000080 80 54 f4 b7 04 d0 74 38 66 b8 44 39 00 ac 62 b9
       -2.9126415e-05 5.8367863e-05 0.0001876071 -0.00021617115
000090 1b 7c 6c 3a ae 95 30 b9 9c 52 1d 39 f8 27 82 39
       0.00090211787 -0.00016840428 0.00015003461 0.0002482531
0000a0 24 58 0d b6 f0 e6 ff 39 77 29 e9 37 42 56 33 3a
       -2.1061942e-06 0.00048809452 2.7795073e-05 0.00068411615
0000b0 ba fa 4a b9 d2 5a d4 b8 c0 4c 58 37 a7 28 84 b8
       -0.00019357624 -0.00010125864 1.2892473e-05 -6.3018226e-05
0000c0 13 07 c4 39 aa ed f5 39 9f 58 45 3a c1 a3 41 39
       0.00037389304 0.00046907115 0.0007528159 0.00018466917
0000d0 48 1e 01 b8 9f 6b 15 3a 2a 6d 37 39 ca ac fb 39
       -3.07842e-05 0.0005699936 0.00017492907 0.0004800319
0000e0 53 8d 00 b9 2e f2 bf 39 67 a0 04 3a b9 cc 9d 39
       -0.00012259679 0.00036610797 0.0005059302 0.00030097904
0000f0 a4 05 15 39 b0 54 de b8 4b c7 fb 39 a9 05 a8 b8
       0.00014211849 -0.00010601559 0.00048022936 -8.0119185e-05
000100 c7 db 0d ba bd 13 0f b9 46 4d e7 38 d2 f6 e9 b9
       -0.00054114725 -0.00013644896 0.00011029332 -0.0004462512
000110 f4 b0 ec 3a 08 2e 42 ba 90 dd bc b9 6c c9 03 3a
       0.0018058107 -0.0007407372 -0.0003602323 0.00050272676
000120 38 20 8f 38 4f b5 5c 3a 60 20 c4 39 7a e7 83 3a
       6.8247726e-05 0.0008419351 0.00037408154 0.0010063492
000130 01 b1 80 ba b0 fe f7 b9 99 c0 10 ba 03 92 d8 b9
       -0.0009818376 -0.00047301268 -0.00055218633 -0.00041307518
000140 cd 33 15 3a 01 f3 90 3a 82 07 af 3a b4 a2 39 39
       0.0005691618 0.0011058749 0.0013353678 0.00017703586
000150 c4 bd 05 ba da a4 ed 3a 0e 39 08 37 7c 65 b7 3a
       -0.00051018246 0.0018130795 8.119516e-06 0.0013992037
000160 9c 5e a9 b9 aa 18 af 39 15 e9 90 3a 2e 98 8d 3a
       -0.0003230468 0.00033396977 0.0011055792 0.0010802799
000170 57 33 84 ba b1 11 35 ba af fb 83 3a d7 e4 05 ba
       -0.0010086101 -0.0006907238 0.0010069514 -0.0005107647
000180 3c 63 a2 39 a6 3c 25 3a 78 50 8c 3a 90 40 28 b8
       0.00030972983 0.0006303288 0.0010705134 -4.011445e-05
000190 66 bb 06 3b 33 da 00 ba 9c 7c e0 39 0b d4 a7 39
       0.0020558476 -0.0004915327 0.0004281745 0.00032010706
0001a0 d4 e1 63 38 af 6a 7d 3a 7d 2c 2f 38 22 2b 9e 3a
       5.4331336e-05 0.0009667081 4.1764684e-05 0.0012067298
0001b0 f1 1c e4 b9 d8 04 c5 39 54 1a 6f b9 21 03 67 b9
       -0.00043509112 0.00037578377 -0.00022802624 -0.00022031042
0001c0 77 54 a6 3a ae 7a 7c 3a 74 d1 80 3a 10 2d 89 b7
       0.0012689967 0.0009631318 0.0009828047 -1.6352657e-05
0001d0 2c 15 a4 b9 92 00 bf 3a 43 dd a2 b8 66 af 7d 3a
       -0.00031296292 0.0014572314 -7.765975e-05 0.00096773205
0001e0 23 ec 62 b9 a8 d0 e2 39 64 88 22 3b a4 9f 77 3a
       -0.00021641007 0.0004326154 0.0024800533 0.00094460906
0001f0 b2 0e 10 3a e0 3f a0 b9 b0 10 04 3b 67 45 5f b9
       0.0005495354 -0.0003056517 0.0020151548 -0.00021292792
000200 10 8d 66 b9 76 32 78 3a 9c b3 0a 3a 62 4b b1 b9
       -0.00021987059 0.00094679685 0.0005291046 -0.00033816235
000210 c2 76 a4 3b 32 5b ae ba 4b 87 8c 3a 6c 66 0c 3a
       0.00501904 -0.0013302325 0.0010721473 0.0005355838
000220 ef 0f 13 b9 27 cd 08 3b 15 66 14 3b 28 30 f2 3a
       -0.00014024948 0.0020874233 0.0022643853 0.0018477486
000230 20 fe 67 38 65 5d 8a 3a 64 50 82 3a 45 3c 68 ba
       5.5311364e-05 0.0010556398 0.0009942171 -0.00088590785
000240 4e b8 53 3b 64 62 6e 3b 0a dd 5b 3b 5d 28 84 b8
       0.00323059 0.0036374563 0.0033548498 -6.301769e-05
000250 48 fb 15 ba e8 48 80 3b a3 dc 79 39 e2 b7 7c 3b
       -0.0005721343 0.003914941 0.00023828684 0.003856175
000260 70 ed 4b 38 b4 ab 28 3b 4a bb 66 3b 9a e3 e0 3a
       4.8620102e-05 0.0025737109 0.0035206848 0.0017157674
000270 4a b4 8b ba a8 ff 58 b9 94 31 73 3b a0 a7 25 ba
       -0.0010658589 -0.00020694605 0.0037108408 -0.00063192286
000280 2e e3 f1 3b 72 f1 06 3c a0 cf 8b 3a 29 64 4b 3b
       0.0073818183 0.008236276 0.0010666735 0.0031035042
000290 19 4d 8a 3c fb 55 0e 3b 0d 07 a8 3b 08 37 d9 b8
       0.016882466 0.0021718729 0.0051277936 -0.00010357617
0002a0 00 36 06 b8 55 9e 08 3c 0e 1a bf 3b 08 80 d8 3b
       -3.199838e-05 0.008338531 0.0058319634 0.0066070594
0002b0 dd 46 fb 3b 8d c0 19 3c 05 50 a6 3b 29 ec b3 3a
       0.0076683597 0.009384287 0.005075457 0.0013726997
0002c0 f6 bf 5a 3c 06 ce 17 3c 78 1f 45 3c cd b5 b3 39
       0.013351431 0.009265428 0.0120314285 0.00034276993
0002d0 e6 2c f9 3a 7c 15 19 3c 90 70 98 39 8e c5 34 3c
       0.0019010573 0.009343501 0.00029075565 0.011033429
0002e0 ca a0 8b 3a 41 88 5f 3c bc fe 7b 3c c4 a6 52 3b
       0.0010652777 0.013643325 0.015380558 0.0032142857
0002f0 38 6f 0e 3c 51 b9 e6 3a 30 ee 88 3c 0c 8b b4 3a
       0.008693509 0.0017602836 0.01671514 0.0013774349
000300 6c d1 e1 3b 52 c2 e8 3b 3c 6c 93 3a 16 ab 4b 3b
       0.00689142 0.007103243 0.0011247466 0.0031077317
000310 d6 49 5e 3c e5 37 0b 3b e5 4b b3 3b 2e 98 1f 39
       0.013567409 0.0021243033 0.005471694 0.00015220113
000320 53 fd 68 b9 ac c8 e3 3b e6 61 a0 3b 50 af a4 3b
       -0.00022219615 0.006951412 0.004894483 0.0050257817
000330 c9 67 dd 3b 0b 01 01 3c 3f 73 94 3b 0a 14 c2 3a
       0.006756757 0.007873784 0.00453034 0.0014806997
000340 87 73 45 3c b5 6d e4 3b 94 9f 20 3c 9d f0 02 b6
       0.01205147 0.006971086 0.009803671 -1.9511565e-06
000350 14 6c c9 3a 0d c8 bd 3b 56 25 92 b7 f2 e5 07 3c
       0.0015367293 0.00579167 -1.7421942e-05 0.008294569
000360 78 fe 5d 3a 3a b7 38 3c e2 17 39 3c 5b 5b 8f 3a
       0.00084684 0.011274153 0.011297198 0.001093726
000370 74 7c 12 3c dd c7 07 3b 92 0c 5a 3c fd 08 91 3a
       0.008940805 0.0020718493 0.013308661 0.0011065301
000380 7e ee 83 3b 48 1d 77 3a 08 e7 9a 3a 0c f5 48 3b
       0.004026233 0.00094266655 0.001181812 0.0030663637
000390 b0 ad ce 3a 92 8f f6 3a 79 59 8b 3b 94 3a 4a 3b
       0.0015768316 0.0018811098 0.0042526093 0.003085767
0003a0 7e 79 2c 37 80 09 d3 b7 2b 87 95 ba e0 b6 5a b9
       1.0280286e-05 -2.5157584e-05 -0.0011408081 -0.00020858226
0003b0 c0 32 e3 3a 90 90 a7 39 3c 0e 1f 3b d6 4e 62 3a
       0.001733385 0.0003196043 0.002426996 0.0008632963
0003c0 39 ee 74 3b 64 40 e9 b9 10 67 18 3a 03 19 2d 3a
       0.0037373437 -0.00044489198 0.00058136974 0.00066031533
0003d0 50 ba 78 3b 00 7d 35 bb 68 40 b4 37 5a 0b b9 ba
       0.0037952848 -0.0027692914 2.1487664e-05 -0.0014117763
0003e0 60 8f 73 3b 42 e5 90 ba a0 7b 65 39 1c 65 46 ba
       0.0037164316 -0.0011054652 0.00021885196 -0.0007568167
0003f0 3c ef b9 3b 84 fa 6b 3b d0 71 28 3a 9a f4 24 3a
       0.005674271 0.0036007473 0.0006425651 0.0006292552
